Model/model.pth (torch, 914350 bytes, 20 tensors)

layer1.0.weight f4 [64, 1, 9]
000000 7d f2 e4 bd 22 1b 82 be 7c 21 34 3e 05 c6 1b be
       -0.111790635 -0.25411326 0.17590898 -0.15212257
000010 52 f2 6a be a6 d5 67 bd 43 ad 41 be b3 09 f4 bd
       -0.22944 -0.056600235 -0.1891375 -0.119159125
000020 d3 84 a5 3d 2a 64 59 3c 83 7c 44 3d f7 e0 49 3e
       0.08081975 0.01326851 0.047970306 0.19714724
000030 f5 1d f9 bd f1 f6 8f 3e 04 c4 38 bd db 0b 63 3d
       -0.12163917 0.2811809 -0.04510881 0.055431228
000040 f7 e2 60 be 6c ab 2b bd a5 a2 19 be 1f 8c 33 3d
       -0.2196158 -0.041911528 -0.1500345 0.0438348
000050 1d fd 81 3e e8 e7 48 3e ce a9 2b be 8a 08 25 bc
       0.25388423 0.19619715 -0.16763994 -0.010072837
000060 c8 67 8f bd 6a 45 16 3e 67 89 01 bc ae 0d 50 3e
       -0.070022166 0.14674917 -0.007906294 0.20317718
000070 b7 59 49 be 67 1e 89 3e a9 12 ad bd 7e 85 91 be
       -0.1966313 0.26781008 -0.08450825 -0.2842216
000080 29 e6 9e 3e c3 4b ea 3d 60 05 82 3e 66 22 c2 3e
       0.31034973 0.11440232 0.25394726 0.3791687
000090 59 79 b8 be 53 5d 76 3e a3 b8 8b be f2 d2 1a bd
       -0.3603008 0.24059038 -0.27289304 -0.03779883
0000a0 f2 20 6f 3e 84 5c ac 3c 23 50 3c be c7 77 3f 3e
       0.23352411 0.021040209 -0.18389945 0.18698035
0000b0 9d 70 82 be 78 1e 24 be ed 01 1b be 75 48 79 be
       -0.25476542 -0.16027248 -0.15137453 -0.24344046
0000c0 b1 14 6d 3e cb 97 94 be e1 9a 43 be 70 53 21 be
       0.23152424 -0.2902206 -0.1910205 -0.15754485
0000d0 03 2d 6a be 77 b6 9b be b9 b5 e4 bd bc ca 31 3e
       -0.22868733 -0.30412647 -0.11167473 0.17362493
0000e0 24 d6 5a bd 3e 20 38 3e 09 8a 96 3e 0e a9 cb 3d
       -0.053426877 0.1798105 0.29402187 0.09944354
0000f0 86 31 78 bd 27 07 4a be 7a a1 9a be a8 cf 96 3c
       -0.060594104 -0.19729291 -0.30201322 0.018409565
000100 d2 64 be bd d0 2d a6 3e 48 e2 99 3e 9c 8d 9b 3e
       -0.09296574 0.32456827 0.3005545 0.30381477
000110 69 7d 58 3e 78 22 47 be 5e 78 a6 bd 12 b2 01 be
       0.2114159 -0.19446743 -0.08128427 -0.12665585
000120 3f 02 3b 3e 17 74 ea bd 83 92 25 be ab b1 0a 3e
       0.18262576 -0.11447924 -0.16169171 0.13544337
000130 13 42 cc bc 2c df b7 3d 6a 69 6e 3e 12 85 4d be
       -0.02493385 0.089781135 0.232824 -0.20070294
000140 48 7d 04 be 17 70 ed 3d e1 ce 70 be fd 4c 8f be
       -0.12938416 0.11593645 -0.23516418 -0.27988425
000150 0a b3 88 bd 1f 83 90 3e 2b d5 95 3e 5b 90 8d 3e
       -0.06674774 0.28225037 0.29264197 0.27649197
000160 4b 62 59 3d 19 d6 1f be 22 f8 56 3d 9d 41 87 be
       0.053072255 -0.15609016 0.05248273 -0.26417246
000170 86 da 33 3c 90 89 83 be 11 6b ef 3d 48 8c aa bc
       0.010977393 -0.2569089 0.11690343 -0.020818844
000180 6a 6c 4f 3e e2 42 93 3e 16 6d a4 bd 1c 5e 8c be
       0.202562 0.28761965 -0.08028619 -0.2741555
000190 50 40 40 be 3b 12 4d 3e e8 e2 9c 3e 9c b9 97 3e
       -0.18774533 0.20026486 0.30641866 0.29633796
0001a0 54 a7 05 3e 4b 49 b0 be 6e 39 86 be 87 42 84 be
       0.13052112 -0.34430918 -0.2621569 -0.25832006
0001b0 b1 a8 6f be 5b 30 46 bd 76 06 57 3d 96 24 ec 3d
       -0.23404194 -0.04838596 0.052496396 0.11530416
0001c0 51 16 4a be 80 ba 11 be 4a 0a fd bd cb 35 0b 3e
       -0.19735076 -0.142313 -0.12355478 0.13594739
0001d0 c9 a1 c1 3e 7e 40 2a 3e de 5e 4e 3c 43 ad 7e 3e
       0.37818745 0.16626164 0.01259586 0.24870782
0001e0 e5 73 8f bd 0b 0c 41 3d e5 da 7d 3d 51 8f a9 be
       -0.07004527 0.047130626 0.061976332 -0.33117154
0001f0 f4 df 91 3e ff 66 9d be 43 3e 06 3d 5a 91 51 bd
       0.28491175 -0.30742642 0.03277422 -0.05116401
000200 b5 80 13 3e 01 d2 01 3d d2 cc 3c be 8c 15 31 3d
       0.14404567 0.031694416 -0.18437508 0.04323344
000210 81 0b e2 bd ab 17 83 3e a0 ef 33 3d b3 0d 91 be
       -0.110373504 0.25603995 0.043929696 -0.28330764
000220 67 c4 19 be d0 4b 2c 3e 0c b1 83 be 94 5b 9a 3e
       -0.15016328 0.16825795 -0.25721014 0.30147994
000230 3e 97 42 3e cb 8c 97 bd 3d 9b b3 3e ef 26 87 3e
       0.19003007 -0.07399901 0.35079375 0.2639689
000240 f6 22 f5 bd c0 10 13 be cf 58 20 3d 6e cc e4 bd
       -0.11969559 -0.14361858 0.039147194 -0.11171804
000250 3a 55 a3 be 02 b9 34 be 8e f5 24 3e f7 6d 38 3e
       -0.3190096 -0.176487 0.16109297 0.18010698
000260 74 2d 20 be 1b e3 93 bb 05 7e 8b be 9b 75 e0 3d
       -0.15642339 -0.004513157 -0.27244583 0.109599315
000270 02 80 d5 bd dd e2 83 be 7c f7 cf 3d f8 fa 82 be
       -0.10424806 -0.2575902 0.10154626 -0.255821
000280 de 30 01 3d cb ca 68 3e 22 a4 c9 bd 6f ae 47 be
       0.031540744 0.2273361 -0.09845759 -0.19500135
000290 85 79 88 bc 01 a5 49 3d fe 20 e7 3d 23 a5 07 be
       -0.016659508 0.049229626 0.1128559 -0.13246588
0002a0 de e3 9d 3e ed 33 62 bd 44 64 88 be ec 0b 0f 3e
       0.3083791 -0.0552253 -0.26638997 0.13969392
0002b0 74 97 0d 3e c3 97 0c be 3b 87 8d 3e 12 1f 8b be
       0.13827306 -0.13729768 0.27642235 -0.27172142
0002c0 72 6d 97 bc 0c 2c f6 3b 8f fd 0b be 9a 70 86 be
       -0.018484805 0.007512575 -0.13670944 -0.26257783
0002d0 69 16 b6 bd 76 cb 9d 3e 0b ef ea 3d 3b ff 90 3e
       -0.08890993 0.3081929 0.11471375 0.28319725
0002e0 15 90 92 3e 05 90 1e bd e0 f4 ab 3c 28 e6 78 3e
       0.2862555 -0.038711566 0.020990789 0.24306548
0002f0 73 ea 45 bc 98 75 39 be 8b f4 3d 3e 94 f1 13 be
       -0.012079823 -0.18111265 0.18550317 -0.14447623
000300 75 30 e7 3d cb 32 1e 3e 91 37 76 be eb 40 46 3e
       0.11288539 0.15449063 -0.24044634 0.19360702
000310 b1 77 4f be 72 fe 35 3d 55 ba 71 3e 1f 93 82 bc
       -0.20260502 0.04443211 0.23606236 -0.015939293
000320 f6 72 95 be 0b 13 37 be 51 3d aa 3c 17 43 01 be
       -0.2918927 -0.17878358 0.020781191 -0.12623249
000330 dc 9b 49 be 65 7d 20 be 94 cb dc 3c b3 87 ec bc
       -0.19688362 -0.15672834 0.026952542 -0.0288733
000340 0d 37 12 3e 6e 09 c8 3c 1e 1e 34 3e 4f 1b 82 3e
       0.14278813 0.024418559 0.17589614 0.2541146
000350 dc d3 cf bd df 9e 3e 3e 60 68 63 3e d8 d0 8c 3e
       -0.10147831 0.18615292 0.22207785 0.27503085
000360 bf 0d 8d 3e 8f d5 60 bd 13 92 f8 3a 61 15 44 bd
       0.2754955 -0.054891165 0.0018964432 -0.04787195
000370 d7 a4 df 3d 05 26 83 3d ce 35 1a 3c 96 24 df 3c
       0.109201126 0.06403736 0.009412242 0.027239125
000380 3e 4e a1 be e9 40 13 be 09 59 d0 bc b0 87 62 3e
       -0.31505007 -0.1438023 -0.02543308 0.22122073
000390 37 bd 9a 3e 48 2a 89 3d 35 01 df 3c a3 24 8d be
       0.30222484 0.06697518 0.027222255 -0.27567014
0003a0 db f4 e5 bd ea f3 75 3d 74 8e 1f be ab ee ef 3d
       -0.11228343 0.060047068 -0.15581685 0.11715444
0003b0 df 02 95 3e f3 dc e6 bd 55 df a9 3e 81 a1 f5 bd
       0.29103753 -0.112726115 0.331782 -0.11993695
0003c0 93 46 ab bd 1b 59 92 3e 7a 58 43 be 10 27 9d bd
       -0.0836307 0.28583607 -0.1907672 -0.07673466
0003d0 30 64 85 3e 76 df 84 be 50 e6 91 be 24 43 7d be
       0.26053 -0.25951737 -0.28496027 -0.24732643
0003e0 e1 80 0f be bd a6 5b be 94 2e 8b bd 0b 54 7a 3e
       -0.14014007 -0.21450324 -0.067959934 0.24446122
0003f0 69 2a 77 3e b8 c7 ab 3d 0e 44 3f 3d 51 ba 29 3e
       0.24137272 0.08387703 0.04669576 0.1657498

layer1.0.bias f4 [64]
000000 bc b1 8f 39 55 7a 9f b8 98 c7 36 b5 e1 43 3b bb
       0.00027407508 -7.604497e-05 -6.809073e-07 -0.0028574395
000010 5b 25 26 3b 27 88 b1 b8 38 97 3d ba 3b b0 77 ba
       0.0025351855 -8.465378e-05 -0.0007232311 -0.00094485626
000020 52 f1 4f ba 4d 51 0b b9 62 b3 4c b9 9b 9c ab ba
       -0.0007932383 -0.0001328636 -0.00019521781 -0.0013092937
000030 6e 95 4a b9 88 bc 1c 39 79 59 02 3b f7 d8 23 39
       -0.00019319888 0.00014947553 0.0019889756 0.00015625717
000040 08 c7 8d b9 6c e5 af 39 07 94 e7 39 1a ad 63 39
       -0.00027041906 0.00033549534 0.00044170042 0.00021712892
000050 87 be 1a 39 99 fd d8 ba 93 6a 11 39 2e 98 17 3b
       0.00014757561 -0.001655507 0.0001386798 0.0023131478
000060 e0 1e c2 3a c6 27 f0 b8 53 85 01 39 fa f6 0b bb
       0.0014810227 -0.000114515 0.00012352066 -0.0021356926
000070 7c 4e 03 b9 dd c0 38 bb bd a6 e5 b8 77 77 8a 38
       -0.00012522371 -0.0028191127 -0.00010950628 6.602605e-05
000080 b0 47 dd b9 6f 51 99 38 21 9e 0a b8 95 f8 bb 39
       -0.00042205816 7.310777e-05 -3.3049033e-05 0.00035852627
000090 aa 38 82 38 de 3f 1e b8 50 97 74 ba ad 59 05 b9
       6.2094376e-05 -3.7729616e-05 -0.00093304086 -0.00012717275
0000a0 ea ea 53 b9 80 2c e2 bb 31 4b ac b8 5a b9 6d b9
       -0.0002021004 -0.0069022775 -8.2156046e-05 -0.0002267113
0000b0 7a 62 2a ba f6 9a 58 b9 19 e5 f2 39 96 c2 27 37
       -0.00064996595 -0.00020657093 0.00046328528 9.999281e-06
0000c0 21 a8 b4 3a 7d eb 9a b9 76 ed 9a b6 76 bf ed 39
       0.0013783016 -0.0002954862 -4.6172017e-06 0.00045346812
0000d0 a1 74 a0 39 fe 70 c0 ba eb 7e 06 b8 e0 c0 98 38
       0.00030604473 -0.0014682112 -3.206629e-05 7.2838506e-05
0000e0 c4 af d5 3b 6e 62 96 ba f5 42 06 3b 74 e9 34 b7
       0.006521197 -0.0011473426 0.0020486687 -1.0783191e-05
0000f0 88 87 f8 38 72 30 c0 3b c8 57 3d 3b de e8 fb ba
       0.00011850806 0.00586515 0.0028891433 -0.001921918

layer1.1.weight f4 [64]
000000 43 6e 7a 3f 48 cc 7e 3f 4a 6d 7c 3f b8 71 82 3f
       0.97824496 0.9953046 0.9860426 1.0190954
000010 37 2a 82 3f 43 9e 7f 3f d6 a6 7e 3f f4 86 82 3f
       1.0169133 0.99850863 0.9947332 1.0197434
000020 a0 6c 80 3f 5d 0b 7d 3f 3c 8b 80 3f 12 20 82 3f
       1.003315 0.98845464 1.0042491 1.0166037
000030 8b 7c 80 3f 76 7e 81 3f d2 19 80 3f 57 a5 7f 3f
       1.0038007 1.0116718 1.000788 0.99861664
000040 5c 38 7b 3f c4 1d 83 3f 5a e3 78 3f ff 35 7d 3f
       0.9813287 1.0243459 0.9722191 0.98910517
000050 de f4 7a 3f 7a 97 8b 3f 6a 08 7b 3f e4 7a 7e 3f
       0.9802989 1.0905602 0.98059714 0.99406266
000060 77 bc 7a 3f ca 51 80 3f 96 56 83 3f 5a c2 7d 3f
       0.97943825 1.002496 1.0260799 0.9912468
000070 b4 f2 7b 3f 09 08 82 3f 45 00 7d 3f d9 92 7a 3f
       0.9841721 1.0158702 0.98828536 0.9788032
000080 0e 87 84 3f 09 0b 7b 3f e4 f6 78 3f f7 74 80 3f
       1.0353715 0.98063713 0.97251725 1.0035695
000090 28 d9 7d 3f 34 98 7a 3f 64 67 7a 3f 13 6b 7a 3f
       0.9915948 0.97888494 0.9781401 0.9781963
0000a0 9b 46 7f 3f fb 8e 7f 3f 46 31 77 3f 58 68 81 3f
       0.9971711 0.99827546 0.9655956 1.0109968
0000b0 18 83 82 3f d7 1e 7c 3f dd c0 7c 3f ce 3e 7f 3f
       1.0196257 0.9848456 0.98731786 0.9970521
0000c0 ff a1 7c 3f b7 5f 79 3f 32 00 76 3f 19 23 7a 3f
       0.98684686 0.97411674 0.9609405 0.97709805
0000d0 7b 0f 7c 3f 82 8f 84 3f f0 b4 76 3f 89 8e 7d 3f
       0.9846112 1.0356295 0.9636984 0.99045616
0000e0 39 be 7a 3f de 8d 80 3f 8b 93 86 3f 23 d9 7c 3f
       0.97946507 1.0043294 1.0513777 0.98768824
0000f0 31 82 7d 3f 17 8d 76 3f c1 05 7f 3f 85 53 81 3f
       0.9902678 0.96309036 0.99618155 1.0103613

layer1.1.bias f4 [64]
000000 26 1c 0f bd 36 23 f9 bc b9 b1 14 bd 37 d8 23 bc
       -0.034938954 -0.030412298 -0.036302302 -0.01000028
000010 5b 27 3a bc 7b f8 d7 bc 6b 54 d2 bc 64 fa 2c bd
       -0.011361922 -0.026363602 -0.02567502 -0.04223098
000020 6b f8 19 bd 74 43 5a bd f7 1f 41 bd 0e a2 26 bd
       -0.037590425 -0.053286985 -0.047149625 -0.04068189
000030 6a d4 13 bd 9d 0d e1 bc 37 be 8d bc 27 1e 78 bc
       -0.036091246 -0.027472312 -0.017302616 -0.015143908
000040 95 80 ed bc 3e b3 06 bc 90 99 1f bd 77 80 de bc
       -0.028991977 -0.008221446 -0.038964808 -0.027160866
000050 1a 94 94 bc dc 38 4e bc 4f 87 12 bd 77 09 e6 bc
       -0.018137027 -0.0125867985 -0.03577357 -0.028080685
000060 c9 c5 67 bc 04 11 ad bc f6 63 24 bc 6b 22 e0 bc
       -0.014146277 -0.021126278 -0.010033598 -0.027360162
000070 42 7c c1 bc b9 2f 7d bc 47 9a f5 bc 20 a9 fe bc
       -0.023618821 -0.0154532725 -0.029980792 -0.031086504
000080 08 8c 31 bd cf c3 0e bd 96 20 d8 bc c2 43 9d bc
       -0.043346435 -0.034854706 -0.026382726 -0.019197349
000090 15 4b 19 bd b3 13 d0 bc bc 27 d0 bc 15 fd 98 bc
       -0.03742512 -0.025400018 -0.025409572 -0.018675366
0000a0 07 d2 87 bc a5 9e 83 bc bb 55 1f bd c2 a0 1c bd
       -0.016579641 -0.016066859 -0.03890012 -0.038239248
0000b0 5b 5c 82 bc 1e 37 01 bd b2 b1 01 bd 7c 2a 1a bd
       -0.01591318 -0.031546704 -0.031663604 -0.037638173
0000c0 b6 4d 1b bd 6f 43 2a bd 94 18 16 bd 96 cf 04 bd
       -0.037915908 -0.041568216 -0.036644533 -0.032424532
0000d0 de 98 e8 bc 6d 66 a8 bc 53 d3 e9 bc f8 7c dd bc
       -0.028393205 -0.020556653 -0.02854315 -0.027037129
0000e0 e8 de 0a bd e3 a5 13 bd ff 65 19 bd 6e 11 09 bd
       -0.033903986 -0.036046874 -0.037450787 -0.033463888
0000f0 34 c2 14 bd 60 7e 03 bd 54 3e 1b bd f6 e3 31 bc
       -0.03631802 -0.032102942 -0.037901238 -0.010857573

layer1.1.running_mean f4 [64]
000000 21 7b 93 ba c6 e6 3c b9 d9 d4 17 ba ec 74 e6 b9
       -0.0011251905 -0.00018015047 -0.00057919096 -0.00043956132
000010 f8 9d 3e 3b 2c 70 74 bb 62 80 c6 ba ba 8e 88 ba
       0.0029085856 -0.0037298305 -0.0015144462 -0.0010418512
000020 c3 41 74 ba 58 05 32 3b 10 d2 ef 3a d9 31 3a bb
       -0.00093176606 0.002716383 0.0018296856 -0.002841106
000030 7b c4 43 39 7e c0 79 ba a7 49 0a 3b 46 86 82 3b
       0.00018669844 -0.000952728 0.002110103 0.003983292
000040 1b fa 87 ba 24 62 a6 38 54 25 12 3a 4a 3c 1b bb
       -0.001037422 7.933777e-05 0.00055750203 -0.0023687058
000050 40 9e ad 3a 7d b5 ed ba 16 ea 91 ba 86 17 a2 3b
       0.0013246015 -0.0018135753 -0.0011132385 0.004946652
000060 71 14 80 3a f0 d8 99 ba 30 2f 39 3a 14 b5 59 bb
       0.0009771717 -0.0011737626 0.00070642214 -0.0033219503
000070 e6 b9 02 bb 21 8e 39 bb 44 78 8c 3a 9a 74 b8 ba
       -0.001994723 -0.0028313475 0.0010716994 -0.0014072836
000080 60 ae 50 b8 2f b2 0b b9 b5 07 aa 3a 99 b3 5e 3a
       -4.9753464e-05 -0.00013322452 0.0012972268 0.000849539
000090 be 13 eb 3a db 20 53 bb df 26 db ba 52 07 2e 3a
       0.0017934961 -0.0032215628 -0.0016719959 0.0006638664
0000a0 a7 33 21 bb 24 33 12 bc 8c b9 e9 b8 50 9e 81 b9
       -0.0024597438 -0.008923326 -0.000111448666 -0.0002472275
0000b0 e2 88 cc b9 90 10 3f 38 d9 2f 02 ba 39 a6 5c 3a
       -0.00039011898 4.5553374e-05 -0.00049662363 0.0008417103
0000c0 53 1e b0 3a ea 40 85 3a e3 77 4e bb 30 46 4a 3a
       0.0013436772 0.0010166441 -0.0031504564 0.0007716147
0000d0 09 ea d1 ba eb cd 54 ba 32 2c 1c ba d0 d7 f4 3a
       -0.0016015182 -0.00081178424 -0.00059575133 0.001868004
0000e0 8f b7 c4 3b 3b 51 79 bb ba 0c c3 3b ca 6f 7d 39
       0.006003327 -0.0038042802 0.005952445 0.00024169605
0000f0 c0 12 d4 37 49 e0 ca 3b e0 fe d5 3a bf ed 73 bb
       2.52811e-05 0.0061912877 0.0016326569 -0.0037220565

layer1.1.running_var f4 [64]
000000 83 b7 67 3e 13 a4 f4 3d 1f 34 58 3e bd 95 8d 3e
       0.22628598 0.11945357 0.21113633 0.27653304
000010 04 47 5c 3e 34 bc db 3e 91 0f 56 3e ad 5b 8c 3e
       0.21511465 0.42917025 0.20904376 0.27413693
000020 54 4b 26 3e 63 89 98 3e 14 2d 3f 3e 11 07 b3 3e
       0.16239673 0.29792318 0.1866954 0.3496633
000030 38 a7 7c 3e 4f 85 01 3e 82 6a 94 3d 26 41 f0 3e
       0.24673164 0.1264851 0.07246877 0.46924704
000040 87 29 00 3f d6 65 2b 3e 1b b3 b6 3e 8d 75 76 3e
       0.50063366 0.16738066 0.35683522 0.2406828
000050 00 fa 91 3e bc b1 f3 3c 8c e5 df 3e 93 64 94 3e
       0.28511047 0.029747836 0.43729818 0.28982982
000060 74 7a 14 3e ab 4d 24 3e 8f 73 23 3e 07 3d 07 3f
       0.14499837 0.16045253 0.15962051 0.52827495
000070 7d 08 48 3e ff 48 0b 3e 7e ef 16 3f 5e 50 95 3e
       0.19534488 0.13602065 0.58959186 0.29162878
000080 77 7e f5 3d 2d 09 f4 3e 87 fc 17 3f 51 57 1f 3e
       0.11987012 0.4766325 0.593697 0.15560652
000090 76 ef 9b 3e 7c c9 ac 3e 55 c4 36 3e 34 cf d0 3e
       0.30456132 0.3374747 0.17848332 0.40783083
0000a0 bd 07 b2 3e 78 6d 68 3e 29 7a a3 3e 33 1c b8 3e
       0.3477153 0.22698009 0.31929138 0.35959014
0000b0 ce 1a 3c 3e 14 e7 75 3e 27 cb 4e 3e 86 07 ad 3e
       0.183696 0.2401393 0.20194684 0.33794802
0000c0 f0 08 59 3f 8f 54 1d 3f 18 17 84 3e f4 89 9d 3e
       0.8477926 0.6145715 0.2579887 0.30769312
0000d0 0c ee 89 3e 73 04 d4 3c 65 e1 d2 3e b0 a1 99 3e
       0.26939428 0.025881028 0.41187587 0.3000617
0000e0 54 86 ea 3e ea 18 bb 3e eb c2 76 3e 33 c7 cc 3e
       0.4580561 0.36542445 0.24097793 0.39995727
0000f0 06 2f 1e 3f 7e 2c b5 3e 41 6e 8a 3e d4 54 22 3e
       0.617905 0.35385507 0.27037242 0.15852672

layer2.0.weight f4 [64, 64, 5]
000000 31 21 3d 3d cc 37 1d 3b 28 41 d3 3c 69 ea 5b 3d
       0.046174232 0.0023989556 0.025787905 0.053690348
000010 61 3b e2 bc 1a d5 56 3d d1 dd 02 bd 6e b2 79 bc
       -0.027616205 0.052449323 -0.03194982 -0.015240295
000020 3c b9 cb 3b 4b 97 8b bc bc 98 da bc 3a 7b 05 3d
       0.00621715 -0.017039916 -0.026684158 0.03258822
000030 10 e3 c6 3c dc 07 17 bd 15 55 04 3b e9 9e c7 3c
       0.024278194 -0.03687273 0.0020192314 0.024367766
000040 fc 8f 2a bd b6 e9 d1 bc 75 3d 40 bb 6b 76 f9 3b
       -0.04164122 -0.025624137 -0.0029333506 0.0076129935
000050 15 34 d1 3c 93 b1 05 3d 23 f9 0f bd 3e 3c 30 3d
       0.02553753 0.03264005 -0.035149705 0.0430262
000060 8c 83 2f 3d 1f 34 db ba 44 b0 5f 3d 69 4b 8b bc
       0.042850062 -0.0016723907 0.05461146 -0.017003732
000070 0e 38 2f bd 23 b0 04 3d 04 89 7d 3d 2e 12 0e 3d
       -0.042778067 0.03239454 0.061898246 0.034685306
000080 32 e8 57 3d 1b dc 0b bd 21 4d 35 3d f9 e5 1b 3d
       0.052711673 -0.034145456 0.04426301 0.038061116
000090 64 c4 b9 3c 72 24 f0 3c 3e a3 da 3c d9 12 8a 3b
       0.022676654 0.029314253 0.026689168 0.0042136726
0000a0 17 53 cb bb 2d f1 4d bc f0 14 e0 bc 20 4e 21 3d
       -0.0062049734 -0.012569708 -0.027353734 0.039381146
0000b0 4e 14 c2 3c be 36 b5 bb 18 85 1d 3d 9e 8c 81 bc
       0.023691323 -0.0055302074 0.038457006 -0.015814122
0000c0 c4 11 7a 3d c8 36 09 bc 5d a6 41 3d d9 f4 27 3d
       0.0610521 -0.008374877 0.047277797 0.04100499
0000d0 ec b0 3b 3d 8e 6c 2f bd fb 88 ef bc 3a a1 33 bc
       0.045823023 -0.042828135 -0.029240122 -0.010963732
0000e0 c2 59 22 bc 58 c2 45 bd 32 ca 00 bd 1e 71 80 3d
       -0.009909095 -0.048281044 -0.03144283 0.062715754
0000f0 fb eb cd 3c 86 3a d0 3c 9c f0 e1 3c c4 c8 18 bc
       0.025136938 0.025418531 0.027580552 -0.00932521
000100 83 49 57 ba d0 60 4c bd df 59 0f 3d 9c d2 f3 bc
       -0.0008212553 -0.049897015 0.034997817 -0.029763512
000110 39 c2 da bc 89 b7 39 3d ae ec 16 3d 81 c8 61 3d
       -0.02670394 0.04534105 0.03684681 0.055122856
000120 ce 19 69 3c d0 69 44 3d 09 d2 7e bc c2 cc 9c bc
       0.014227344 0.047952473 -0.015553006 -0.019140605
000130 08 08 60 3d e4 ec 12 bd 84 17 f8 3c e6 0e 1e 3d
       0.05469516 -0.035870448 0.03028465 0.038588427
000140 b1 a3 b3 bc 7b 5f aa bc e6 3e 61 bc 8a e0 3d 3d
       -0.02192864 -0.020797482 -0.013747906 0.046356715
000150 a6 68 c9 bc ef a8 60 bd 38 d8 0d 3c 31 fa 5e bd
       -0.024586033 -0.054848608 0.008657508 -0.05443782
000160 c1 6a c4 3c 47 ed 69 bd b2 20 eb 3c 19 44 83 3d
       0.023976685 -0.05711105 0.028702114 0.06409473
000170 6b c7 4f 3d 48 7f 16 bd 02 c8 22 3d 63 85 07 bd
       0.05072729 -0.03674248 0.039741524 -0.033086192
000180 e9 73 01 3d e7 ed 58 bc e8 0a 79 3d e2 ad 8f 3c
       0.03160468 -0.013240314 0.060801417 0.017538968
000190 f5 a8 29 bd 90 05 02 bd 54 79 00 3d 8f 50 37 3d
       -0.041420896 -0.031743586 0.031365708 0.04475456
0001a0 3a 22 b7 3b aa c4 b0 3c 7c 2f 1a 3d 50 90 cf 3c
       0.005588797 0.021578152 0.03764294 0.025337368
0001b0 80 ea 6e bd 55 c0 6d bd 4e 15 50 3d af 10 13 bb
       -0.058329105 -0.05804475 0.050801568 -0.0022440364
0001c0 5f 75 ed bb 77 a3 69 3d 3a 6f 3a 3b a0 ec 38 3d
       -0.0072466577 0.057040658 0.0028447644 0.04514754
0001d0 d7 74 81 3c a9 02 12 3c 25 f1 1b bd 52 29 ff 3c
       0.015802784 0.008911767 -0.03807177 0.031147633
0001e0 d0 37 3a 3c 4b 3d 0e 3d 0a 32 15 3c ee 01 24 bd
       0.011365846 0.034726422 0.0091061685 -0.040040903
0001f0 3f a3 57 3d af d5 0f 3d 76 9e 4a bc 86 75 3b 3d
       0.052645918 0.035115894 -0.012366882 0.045766376
000200 53 53 e7 bc 3b a8 19 bd 0f 91 86 ba 5e c2 1c bd
       -0.028237974 -0.037513953 -0.001026662 -0.0382713
000210 4f db 53 bd f0 6e 01 bd bc d4 49 3b ba ea 94 bc
       -0.05172282 -0.03159994 0.0030796966 -0.018178333
000220 2f 73 36 3d 40 7a d0 3c 43 bb a6 3c 90 88 bc bc
       0.04454344 0.025448918 0.020352965 -0.023014337
000230 5c d1 97 3c 00 60 4f 3d f5 d7 f7 3b ad c6 be bc
       0.018532448 0.050628662 0.007563586 -0.023288095
000240 41 75 f7 bc 58 10 2c bc 9a 7e 24 3d 5d a7 9c 3c
       -0.030207278 -0.0105019435 0.0401598 0.019122774
000250 05 3d 1d bd b3 b1 5f 3d c6 96 71 3c d7 52 31 bb
       -0.03838827 0.054612827 0.01474542 -0.0027057433
000260 73 71 ff bb 67 42 23 3d cb 7d 52 3d 2a 32 03 3d
       -0.0077955066 0.039858248 0.051389497 0.032030262
000270 5d f6 3a bd 4a f1 22 3d 6b 76 1b 3d 87 8e e8 bc
       -0.045645107 0.039780892 0.03795473 -0.028388275
000280 51 ba ce 3c b4 a2 73 3b a3 bb 49 3d 20 3b 58 bb
       0.025235327 0.0037175836 0.04925121 -0.0032994226
000290 e4 20 57 3d 7c 78 9b bc 2a 71 67 3d 50 ec a1 3b
       0.0525216 -0.01897835 0.056504406 0.0049415007
0002a0 e7 35 0a bc 0e d6 45 3c d1 68 9d 3c 8c f2 fd bc
       -0.008435703 0.01207496 0.01921502 -0.030999444
0002b0 10 8d 21 bc b1 e4 5c bb 2c 49 bd 3a e0 25 35 bd
       -0.009860292 -0.0033705647 0.0014441363 -0.044225574
0002c0 14 d1 9a 3c 24 ce fd bb 7b 08 35 3d ff 63 aa bc
       0.018898524 -0.007745521 0.04419754 -0.020799635
0002d0 ba bd 37 3d 28 c6 14 3d 9f ec 2e 3d 54 a2 e1 ba
       0.04485867 0.03632179 0.04270613 -0.0017214515
0002e0 9e e8 1f bd 6c c2 1b bd 2d e9 3c 3d 05 02 ca 3c
       -0.0390402 -0.038027212 0.04612081 0.024659166
0002f0 2c 95 28 3d 6f b5 83 3c ef f8 2d bc 94 31 89 3d
       0.041157886 0.016077725 -0.010618432 0.066989094
000300 1f bc 31 3d 6c bf 23 3c fb 70 fe 3b 33 91 37 bc
       0.043392297 0.009994369 0.007764933 -0.011204052
000310 a1 6c 13 3d e8 5e 40 3c f8 e3 92 bc 2c 7c 20 bd
       0.03599227 0.011741377 -0.01793097 -0.03918092
000320 11 27 05 bc b6 b9 99 3c 71 14 05 3d a5 e8 04 3d
       -0.00812699 0.018765312 0.032490198 0.03244843
000330 8b 5d 52 bb 5e c9 e2 3c f9 f4 0b bd c4 af d5 bb
       -0.0032099213 0.02768391 -0.03416917 -0.006521197
000340 c5 08 b7 bc ab 68 2b 3d c2 de b9 3b ce ef fd bb
       -0.022343049 0.041847866 0.0056723068 -0.007749534
000350 4f 4c 60 3c cb 9e 1c 3c 33 7f 62 bd 80 29 dd bc
       0.013690068 0.009559344 -0.055297088 -0.026997328
000360 67 d1 48 3d d2 3f 2a 3a 99 de 28 bc f4 16 99 b6
       0.049027827 0.00064944953 -0.010306978 -4.5624274e-06
000370 ab 00 87 3d 54 d9 06 3d c0 2e 46 3d 17 9e 04 3d
       0.06591924 0.032922104 0.048384428 0.03237733
000380 64 01 50 3d 90 70 87 bb 3b fb 17 3d 2c 19 51 3c
       0.050782576 -0.0041332915 0.037104826 0.012762349
000390 47 e2 97 bc 43 6d 97 bc ad c4 fb 3c 3a 2a 51 3d
       -0.018540515 -0.018484717 0.03073343 0.05106566
0003a0 1b 6b 77 bc b4 92 21 bc 18 19 e6 3b e1 6f 36 bd
       -0.0151012195 -0.009861637 0.0070220344 -0.04454029
0003b0 73 92 44 3d d0 24 08 3d 56 08 3d 3d 5b a7 81 3c
       0.047991227 0.033238232 0.046150528 0.015826872
0003c0 ef 21 24 3d 14 c8 16 bd 51 66 3b 3c 62 5b 11 bd
       0.040071424 -0.036811903 0.011437968 -0.03548754
0003d0 c1 7a 62 3d ba 2f 61 3c a2 4d 78 3d 5c ef fd 3b
       0.05529285 0.013744289 0.06062091 0.007749481
0003e0 3c a5 70 b8 08 92 63 bc e8 53 03 3d 35 79 8c 3c
       -5.7374345e-05 -0.013889797 0.03206244 0.01714764
0003f0 3b be df 3c ff 35 15 bd b6 76 8e bc 2d f8 23 3d
       0.027312389 -0.036428448 -0.01739059 0.0400316

layer2.0.bias f4 [64]
000000 d0 ef f0 b8 15 d5 a1 38 02 b9 0a b9 2d da 02 b8
       -0.0001148876 7.716768e-05 -0.00013229626 -3.1197607e-05
000010 e6 a1 de b8 af 44 9e b9 48 4a 03 ba 71 28 94 39
       -0.00010615941 -0.00030187282 -0.0005008322 0.0002825889
000020 58 b8 45 39 29 02 27 39 06 06 8b 39 0c 4e a4 b9
       0.00018856057 0.00015927166 0.00026516634 -0.00031338667
000030 b2 c9 c4 38 06 9d 05 ba 60 26 89 b9 e5 e1 33 ba
       9.383577e-05 -0.00050969457 -0.00026159268 -0.0006861969
000040 2e 07 00 b8 89 4d fc 39 19 f7 8a b8 dd 82 be b8
       -3.0524265e-05 0.00048122954 -6.626378e-05 -9.084281e-05
000050 f4 af 85 39 c5 3a ae 39 80 5b 8e b8 1a 76 4f b9
       0.00025498832 0.00033231653 -6.788131e-05 -0.00019785055
000060 0e 95 73 b9 e4 ff 5c 39 cc 6c 5e 39 c9 6b e2 b8
       -0.00023229813 0.00021076162 0.000212121 -0.00010796596
000070 09 b2 63 39 56 4c 82 38 db 84 00 39 5e 28 0f b9
       0.0002171473 6.213102e-05 0.00012256524 -0.0001365258
000080 33 71 df b8 2e 84 b2 b8 35 96 82 b7 de bb 73 ba
       -0.000106545536 -8.512322e-05 -1.5567153e-05 -0.0009297709
000090 ae dd c6 37 14 c0 01 b9 31 56 11 38 76 95 0e 39
       2.3706667e-05 -0.00012373953 3.4650966e-05 0.00013597854
0000a0 a7 3d 2b b9 95 a0 9a b9 94 4d c2 37 05 1d 42 b9
       -0.00016330798 -0.00029492812 2.3162727e-05 -0.00018512092
0000b0 f7 7b 96 38 f3 da 12 b9 de cc 89 38 af c0 90 39
       7.1756476e-05 -0.0001400521 6.5708286e-05 0.0002760938
0000c0 ba 07 3d 38 34 d8 2c 3a c0 50 16 3a 8a 06 90 b7
       4.5068307e-05 0.0006593496 0.00057340786 -1.7169183e-05
0000d0 58 5f 46 b9 2f 3b ae b8 1c 40 9c b9 14 6b 16 ba
       -0.0001891827 -8.30799e-05 -0.00029802404 -0.0005738002
0000e0 1a 4c 7e b8 d3 43 c1 37 3d 3c 9f b8 55 b8 1c 39
       -6.0629194e-05 2.3038976e-05 -7.592931e-05 0.00014945988
0000f0 47 2b 1e ba c0 be 55 38 47 4a 34 39 59 26 52 39
       -0.00060336705 5.0960807e-05 0.00017193808 0.00020041446

layer2.1.weight f4 [64]
000000 d0 88 7d 3f 41 72 7d 3f 79 17 80 3f cd 59 7c 3f
       0.99036884 0.9900246 1.0007163 0.98574525
000010 d6 b3 76 3f 5b 0c 7b 3f c4 a3 81 3f 72 34 7f 3f
       0.9636816 0.9806573 1.0128102 0.996894
000020 fd 84 81 3f 63 54 85 3f 90 e1 7b 3f 2e b8 7b 3f
       1.011871 1.0416378 0.98391056 0.9832791
000030 b4 d6 77 3f 36 cf 7c 3f b8 5a 79 3f d8 56 80 3f
       0.96811986 0.9875368 0.9740405 1.0026503
000040 c8 66 7f 3f c7 f8 80 3f d0 4c 7b 3f 28 ec 7a 3f
       0.99766207 1.0075921 0.9816408 0.98016596
000050 c9 41 7a 3f 0d 11 84 3f 51 18 7a 3f a6 94 7c 3f
       0.9775663 1.0317703 0.97693354 0.9866432
000060 29 ea 7d 3f 58 60 7d 3f 99 80 7a 3f c8 52 7a 3f
       0.99185425 0.98975134 0.97852474 0.97782564
000070 d5 9a 7b 3f b2 64 83 3f 83 41 7b 3f 23 13 79 3f
       0.9828313 1.0265105 0.9814684 0.97294825
000080 ac d3 80 3f c3 a8 78 3f af 1d 80 3f c8 53 83 3f
       1.0064597 0.9713251 1.0009059 1.0259943
000090 20 f9 7a 3f 32 80 7e 3f 88 73 80 3f 80 ab 80 3f
       0.98036385 0.9941436 1.0035257 1.0052338
0000a0 17 86 81 3f 56 ec 83 3f 18 35 7b 3f dc fc 82 3f
       1.0119046 1.0306499 0.9812789 1.0233417
0000b0 b7 cd 7c 3f b5 6b 7c 3f c6 63 84 3f b4 eb 82 3f
       0.98751396 0.9860185 1.0342948 1.0228181
0000c0 e7 28 7e 3f 74 1b 81 3f 89 fd 82 3f 6c 16 7d 3f
       0.9928116 1.0086503 1.0233623 0.9886234
0000d0 9e f1 75 3f c8 b9 81 3f ad 23 76 3f cd 26 7b 3f
       0.96071804 1.0134821 0.96148187 0.9810608
0000e0 a7 44 84 3f b2 db 84 3f b7 45 7e 3f 5f 16 84 3f
       1.0333451 1.0379546 0.99325126 1.0319327
0000f0 15 8b 82 3f 94 1e 7d 3f 33 e4 81 3f 80 36 7d 3f
       1.0198694 0.98874784 1.0147766 0.98911285

layer2.1.bias f4 [64]
000000 c8 0e 36 3b b8 c4 d0 bc ce 7a 51 3c 4b 36 92 bc
       0.0027779806 -0.025484428 0.012785627 -0.017848155
000010 9d fc e3 bc 1e 5a 8b bc e8 ab 83 3c e1 69 cc bc
       -0.027830416 -0.017010745 0.016073182 -0.02495283
000020 e6 d9 d0 bb c5 70 b4 3c 4e f3 d2 bc 65 e1 a3 bc
       -0.006373632 0.022026429 -0.025750782 -0.020004937
000030 16 7c a3 bb 4a fb fe bc c9 8a ca bc db 7c ab ba
       -0.0049891574 -0.031125683 -0.024724381 -0.0013083474
000040 62 7d 61 bc f4 95 c5 bb 3b 2c ff bc 48 78 4a bc
       -0.013762804 -0.0060298387 -0.03114902 -0.012357779
000050 b0 70 a0 bc 60 af 30 3c df 43 96 bc 70 3c 96 bc
       -0.019584984 0.010784 -0.01834291 -0.018339366
000060 08 fb da ba 61 52 5d bc d3 07 05 bd 31 af a5 bc
       -0.0016706893 -0.01350841 -0.032478165 -0.02022514
000070 98 1a 5b bc 1e 37 33 b9 23 a2 1d bc f3 40 d5 bc
       -0.01337304 -0.00017091303 -0.009621176 -0.026031947
000080 66 b5 f6 3b 6e c2 b8 bc d0 60 29 bc e9 94 50 bc
       0.0075289486 -0.022553649 -0.010338023 -0.012730815
000090 04 e3 1e bc b1 2e df bc 2e 60 f0 bb 70 59 40 bb
       -0.009697679 -0.027243944 -0.0073356843 -0.0029350184
0000a0 df b4 12 3c cc 75 9b 3c 62 2c ba bc d5 22 76 bc
       0.008954256 0.018977068 -0.022726241 -0.015022953
0000b0 64 c8 83 bc 72 7f 89 bc 99 b9 c2 3c 5d 77 1c bc
       -0.016086765 -0.016784403 0.02377014 -0.009549943
0000c0 2d 84 88 bc 73 2f 8e 3c 50 37 33 bc 41 ee 56 bc
       -0.016664589 0.01735661 -0.0109384805 -0.013118328
0000d0 8b cb 1f bd a8 d2 cb bc 5f a4 cd bc 21 0e cd bb
       -0.039012473 -0.024880722 -0.025102792 -0.006257788
0000e0 52 87 4e 3c cb 76 93 3c f9 40 1c bd 93 c7 02 3c
       0.012605505 0.01800098 -0.0381479 0.0079821525
0000f0 ac bf aa 3c 17 66 af 3b 6f d5 6b bc b2 e9 30 3a
       0.02084335 0.005352746 -0.014394148 0.00067486905

layer2.1.running_mean f4 [64]
000000 6c ca c3 3f 31 5e 07 bf 3e 35 9c 3e c5 9c 56 3e
       1.5296149 -0.528781 0.3050937 0.2095824
000010 20 b1 97 be 2d fc b0 be 31 d5 a2 bd 21 e9 8a bf
       -0.29627323 -0.34567395 -0.07950819 -1.0852395
000020 87 f8 e3 3c aa bb 28 c0 af 21 8e 3f 5b 1b 58 bb
       0.027828468 -2.636454 1.110403 -0.003297529
000030 47 bf 77 3f 58 51 1e bf 53 52 a8 be 7e 74 2a bf
       0.9677624 -0.6184287 -0.32875308 -0.66584
000040 71 7b 1a bf da 74 90 be 8d 64 ad bf 5c 95 15 bf
       -0.60344607 -0.2821415 -1.3546311 -0.5843103
000050 6d 8d 33 bf c0 e2 33 bd de 49 b2 be e0 66 94 bc
       -0.70137674 -0.043917418 -0.3482198 -0.01811546
000060 f8 6a 03 bf ee 50 56 3f 4e 25 3a be c0 37 23 bf
       -0.51335096 0.8371724 -0.18178293 -0.6375694
000070 00 f8 e8 bd a0 7d 45 bf 55 91 34 bf 42 db 7f bd
       -0.11375427 -0.77144814 -0.7053426 -0.06246496
000080 6e 7b 1f bf bd 21 d9 be 32 78 c9 bf cf a3 1b bf
       -0.62297714 -0.42408553 -1.5739806 -0.6079683
000090 c7 0f e3 be 3a d2 65 bf 43 3e 12 bc f8 9b 35 be
       -0.44347975 -0.89773905 -0.008925977 -0.17735279
0000a0 41 ae 20 be d5 de 78 bf f4 b8 40 bf a3 2c 98 bf
       -0.15691473 -0.97215015 -0.75282216 -1.1888622
0000b0 11 de 00 bf 4c 53 87 3f 76 55 e4 be f8 59 33 3e
       -0.50338846 1.0572295 -0.44596452 0.17514789
0000c0 74 84 76 3d 84 e1 ca be 10 63 28 bf b1 69 29 bf
       0.06018491 -0.3962518 -0.6577616 -0.661769
0000d0 7d f8 3b be ec f2 b1 3e 4e ca c7 be ac 17 44 bf
       -0.1835651 0.34755647 -0.39021534 -0.7659862
0000e0 60 56 e5 bf 02 3a 8c bf ea 72 89 bf 1d f7 36 be
       -1.7916985 -1.0955203 -1.0738194 -0.17867704
0000f0 da 35 f2 bb 23 38 9c 3f 20 aa e7 bf 26 a6 0c bf
       -0.0073916735 1.2204632 -1.8098793 -0.5494102

layer2.1.running_var f4 [64]
000000 07 ec b8 3f 37 9d 37 3f 03 ef 17 3f 30 43 1b 3f
       1.444703 0.71724266 0.5934908 0.60649395
000010 7d f7 15 3f 3b 0e 0c 3f 8a d9 da 3e b9 db 8c 3f
       0.5858076 0.54709214 0.42744094 1.1004554
000020 e1 17 2a 3f 69 17 7a 40 27 57 7e 3f 74 3e 2a 3f
       0.66442686 3.9076788 0.99351734 0.66501546
000030 7a b1 49 3f 7d cc 48 3f b2 03 1d 3f ed ae 4a 3f
       0.7878643 0.78437024 0.61333764 0.79173166
000040 a4 72 52 3f 3b 0f 06 3f a3 c1 bc 3f c9 7f 37 3f
       0.8220618 0.5236699 1.4746593 0.7167936
000050 b4 56 3b 3f b7 f7 01 3f 45 f0 43 3f 8f a7 e3 3e
       0.73179173 0.5076861 0.765385 0.44463775
000060 ae 60 0e 3f 71 68 30 3f c5 20 57 3f 63 f1 1b 3f
       0.5561627 0.68909365 0.8403438 0.609152
000070 28 0c 51 3f 65 83 57 3f f9 77 20 3f 68 9c 0a 3f
       0.81659174 0.8418487 0.62683064 0.54144907
000080 62 75 2c 3f dd cd eb 3e f6 80 c7 3f 77 fb 72 3f
       0.6736661 0.460555 1.5586231 0.94914955
000090 52 6d 06 3f fe 63 56 3f 63 84 04 3f 48 48 08 3f
       0.5251056 0.83746326 0.51764506 0.5323529
0000a0 55 13 ea 3e bf f9 9a 3f 21 96 70 3f 9c 77 8e 3f
       0.45717874 1.2107466 0.9397908 1.1130252
0000b0 7f 20 15 3f 60 05 80 3f ff 1f 1b 3f 63 50 3b 3f
       0.5825271 1.000164 0.605957 0.73169535
0000c0 71 90 fd 3e d9 39 ee 3e 9e bd 47 3f 2a c4 68 3f
       0.49524263 0.4652851 0.7802371 0.9092432
0000d0 af 8b 00 3f f9 34 52 3f bf 96 14 3f 8b 89 50 3f
       0.5021314 0.8211208 0.5804252 0.81459874
0000e0 2c 5c 0a 40 2f 0b b2 3f 3d a3 6a 3f 74 dc 1c 3f
       2.1618757 1.3909663 0.9165533 0.61273885
0000f0 b7 38 dd 3e 59 de 8f 3f 16 f9 fb 3f b6 2a 58 3f
       0.43207332 1.123973 1.968539 0.8444017

layer3.0.weight f4 [128, 64, 5]
000000 90 24 20 bd 71 7e 03 3d 9e 2e d1 3c ae 75 e4 3c
       -0.03909737 0.032103006 0.025534924 0.027888145
000010 4e ab 2c bd 2f af 93 3b e6 cb f9 3c c2 37 6a 3d
       -0.042155556 0.0045069675 0.030492734 0.05718208
000020 39 de 14 3d 4d d7 9b bb a7 99 96 bc 38 33 9f bc
       0.03634474 -0.0047558905 -0.018383814 -0.019433603
000030 9a 82 0b ba 11 cb 2b 3c e6 37 ef 3c 66 2c 27 3d
       -0.00053218903 0.0104854265 0.02920146 0.040813826
000040 bf b7 1d bd d6 ec 02 bd 81 c4 37 bc f5 dd 80 bc
       -0.038505312 -0.031964146 -0.011216284 -0.015730837
000050 56 60 00 bd 7f 52 c9 bc d7 9d b8 3c 7b 7d 95 bc
       -0.031341873 -0.02457547 0.022536201 -0.01824831
000060 46 50 19 3d 2c 1c 1a 3d 29 e8 bd bc 82 86 15 3c
       0.03743007 0.037624523 -0.023181992 0.009126307
000070 22 b5 20 3d 13 e3 fe bc f5 e1 18 bd c5 d1 8f 3c
       0.03923524 -0.031114137 -0.037324864 0.01755608
000080 f1 9f 63 bc ce 29 c7 bc 96 db 2a bb 28 14 fe 3c
       -0.0138931135 -0.024311926 -0.0026070825 0.03101547
000090 f1 bd ff 3c ad e2 78 3a a0 ed 50 3c 67 a9 41 bd
       0.0312185 0.00094942265 0.012751967 -0.047280695
0000a0 10 40 5b bb 67 f7 52 bd 7b 5c 3d 3c 8c 58 ae 3c
       -0.0033454932 -0.051505473 0.011557694 0.021282457
0000b0 a0 e7 5e bc be 34 b4 bc c3 14 4f bd 71 3f 86 bd
       -0.013605028 -0.021997806 -0.05055691 -0.06555069
0000c0 73 81 1a bd e8 f4 97 bc 36 7c 28 bd 27 cf a7 bb
       -0.03772111 -0.018549398 -0.04113408 -0.00512113
0000d0 2d cf 39 3c c3 56 07 bc d3 6f 83 bd 95 98 49 bb
       0.011340898 -0.008260432 -0.06417813 -0.0030761112
0000e0 7d e8 3d 3b 26 51 19 3d 07 56 78 3b bf 90 02 bd
       0.0028977685 0.037430905 0.0037893073 -0.031876322
0000f0 3f 71 43 3b 75 79 84 bb e1 28 3e bd 9e 49 73 bc
       0.0029822139 -0.004042799 -0.046425704 -0.014849095
000100 c2 62 f9 3c 2a 73 9d 3c 18 50 b1 3c de 81 19 3d
       0.0304426 0.019219954 0.021644637 0.037477367
000110 5f ed 37 3b 75 92 63 bd e6 68 64 bd 39 34 22 bc
       0.0028065068 -0.055559594 -0.0557641 -0.009900146
000120 a8 da 0c bd 55 71 26 bd f2 28 66 bd 20 14 57 3d
       -0.034388214 -0.040635426 -0.056191392 0.052509427
000130 f4 18 81 3c ec 4c 00 bd fd b2 06 bd d3 f3 21 bd
       0.015758969 -0.03132336 -0.03288554 -0.03953917
000140 8c 8f 11 3c 4f 6c 2d bd b9 ac ee bb 5c 73 97 3b
       0.008884322 -0.04233962 -0.0072837737 0.004621906
000150 c2 2c 06 3d ba 6d 80 bb f1 5c 4f bd 89 ad ac 3b
       0.032757528 -0.0039193304 -0.050625745 0.0052697104
000160 1f 20 3c bd 00 9d 3b bd f3 2f fb 3c c3 1a a2 3b
       -0.04592907 -0.045804024 0.030662512 0.004947038
000170 da 12 0e bc 6f 02 66 bd c7 91 b2 bc 8e 73 fa bb
       -0.008671487 -0.056154665 -0.021798028 -0.0076431697
000180 e1 d5 09 3d 4c 1e ca 3c 7f 21 ba 3c 19 f6 37 3d
       0.033651236 0.02467265 0.02272105 0.04491243
000190 01 b6 3d bd 12 a1 1c bb 8f 06 8e bb 4a fa 28 3d
       -0.04631615 -0.0023899716 -0.004334278 0.04125432
0001a0 0d ed 08 3d fe 8c 95 bb 61 a2 80 bd 6e 05 00 3d
       0.033429194 -0.0045639267 -0.06280971 0.03125518
0001b0 9f 3a e6 bb cf 21 6d bd 6c 6d 3e 3c c1 2d a7 bc
       -0.007026031 -0.05789357 0.011622768 -0.02040756
0001c0 e8 c2 04 bd f8 4f e2 bc 1f 88 61 3d ac 4d cc bb
       -0.03241244 -0.027626023 0.055061456 -0.006234845
0001d0 80 89 59 3d 62 c5 a4 3c a5 d7 46 bd 8c fb 19 3c
       0.053109646 0.02011365 -0.0485455 0.009398352
0001e0 ee 3e 75 bd 11 53 97 bc cd 1a fe bc c5 1b 8f bc
       -0.059874468 -0.018472226 -0.031018639 -0.017469296
0001f0 66 56 f1 3c 7c 6b 8d 3a d4 82 2c 3d 3d a7 b0 bb
       0.029460143 0.0010789479 0.042116955 -0.00539103
000200 d2 16 5d 3d d9 c6 0b bd de b6 61 bd e5 d6 c1 bc
       0.05397684 -0.034125183 -0.055106036 -0.02366204
000210 54 0a ce 3c cf 52 3b 3b ac ca 23 bd b0 f0 38 bd
       0.02515141 0.0028583293 -0.039988205 -0.045151412
000220 63 c9 15 bd cb ce 71 bd af c5 a4 3c d3 c0 a2 3a
       -0.03656901 -0.059035104 0.020113794 0.0012417085
000230 4b 36 43 bc ee 96 11 3d 14 e2 01 3d e4 2e 10 bd
       -0.0119148 0.03554433 0.031709746 -0.03520097
000240 f7 a4 87 3b 68 30 33 bd e8 d8 d4 bc 88 f9 56 bd
       0.0041395384 -0.043747336 -0.025982335 -0.052484065
000250 e7 96 12 3d 69 29 2f bd 73 21 3c bd d1 cc f5 3b
       0.035788443 -0.0427641 -0.045930337 0.0075012227
000260 f7 fd 95 3c b8 48 5f bd a9 57 0f bc cf 36 7f 3c
       0.018309576 -0.05451271 -0.008748927 0.015577032
000270 1e 43 00 ba b3 03 b3 bc 40 81 60 bd 85 74 54 bd
       -0.0004892814 -0.02185235 -0.054810762 -0.051868934
000280 60 27 87 bc b2 09 f8 3c 21 09 5e bd 7e 61 65 3c
       -0.016498268 0.03027806 -0.054207925 0.014000295
000290 65 ab 4c bd 88 e4 4b bb e5 1b 3d bb ba 3b e5 bc
       -0.049968142 -0.0031111557 -0.0028855738 -0.027982581
0002a0 a4 4f 60 39 15 a3 1e bd db a8 0e 3d 91 61 f0 bc
       0.00021391973 -0.038729746 0.034829002 -0.029343398
0002b0 1c 20 89 bd 13 e0 68 bd 65 4b 0a bd 35 58 b2 ba
       -0.066955775 -0.05685432 -0.033763308 -0.001360661
0002c0 9e cc d0 3a 0b 82 b5 bc 83 43 39 bd b1 80 48 bd
       0.0015930121 -0.022156736 -0.0452304 -0.048950855
0002d0 c8 8d 1c 3d b8 c7 29 bd 83 59 9a bb b2 b0 f3 bc
       0.03822115 -0.041450232 -0.0047103777 -0.02974734
0002e0 11 79 37 bd 1a 31 ed 3c e6 1c 01 3d ea b4 32 bd
       -0.044793192 0.028954078 0.0315217 -0.043629564
0002f0 ab 6d ad bc ab 20 2a 3d e1 3b b0 bc e5 ce 4c bd
       -0.021170458 0.04153506 -0.021512927 -0.050001998
000300 f5 00 6b 3c e3 20 c7 bc c5 51 96 3c e3 37 01 bc
       0.01434349 -0.024307674 0.018349538 -0.00788686
000310 9b 51 5e 3c d4 25 37 3b ae 95 6a 3c a6 fc 24 bd
       0.013569261 0.0027946131 0.014317913 -0.040280007
000320 96 88 ee 3c 18 c2 5b 3c 4a 97 11 bd 60 14 57 3d
       0.029117864 0.013412975 -0.03554467 0.052509665
000330 9b 8e 0d 3c c0 2e 1c 3d 76 1c 52 bd 31 af 2d bd
       0.008639957 0.03813052 -0.051296674 -0.042403404
000340 6e f9 bf 3c 94 d6 6a 3c 88 d1 26 3d 87 12 d1 bc
       0.023434367 0.014333386 0.04072717 -0.02552153
000350 b6 2c 33 bd e5 f9 5f 3d f0 91 b4 3b 5b 8b 5c bd
       -0.04374381 0.054681677 0.005510561 -0.053843837
000360 d4 fd 34 3c 2e 31 85 bd 10 fd 78 bd df 5b 6c 3b
       0.0110468455 -0.06503521 -0.060788214 0.0036065502
000370 60 3e f7 3c 91 01 0a bd 06 95 45 bd f0 e7 2b bd
       0.03018111 -0.0336929 -0.048237823 -0.04196924
000380 2f b5 07 bc e6 04 3d bd 14 1b 22 bd 54 64 7d 3c
       -0.008282944 -0.04614725 -0.039576605 0.015465815
000390 43 e5 20 3d e5 66 b6 bc f6 a9 9b bc fc 38 c8 3c
       0.03928114 -0.02226586 -0.019001942 0.024441235
0003a0 3c 85 a8 3c 72 e1 de 3c 73 83 0b 3d 3e 5f e9 bc
       0.020571344 0.02720711 0.034060907 -0.028487798
0003b0 86 a7 3f bd 9a dc b2 bc dd 36 ee 3b 78 47 41 bd
       -0.046790622 -0.021833707 0.007269724 -0.0471873
0003c0 e9 86 3a 3c fe 19 89 bd de bd c6 bc 24 98 59 bd
       0.011384704 -0.06694411 -0.024260458 -0.05312361
0003d0 5c 01 b7 bc 4d b3 1a bd b0 d9 2b bd 82 b8 b7 bb
       -0.022339515 -0.03776865 -0.04195565 -0.005606712
0003e0 6b 69 bb 3b 0a 5a b7 bc de ce 22 bd 0c b1 a8 3c
       0.005719354 -0.022381801 -0.039748065 0.020592235
0003f0 c2 f4 ce bb 23 a1 86 bc 87 1e 91 bd 98 5b 02 3d
       -0.0063157985 -0.016434258 -0.07085901 0.03182563

layer3.0.bias f4 [128]
000000 43 bc fa 38 78 61 ad 38 1a c7 59 b8 cf f3 17 37
       0.000119559954 8.267438e-05 -5.192226e-05 9.0570675e-06
000010 a1 1d 89 b7 f9 59 bd b5 59 2b 6d 38 1c f8 8a 36
       -1.634547e-05 -1.4107783e-06 5.6545574e-05 4.141604e-06
000020 71 04 ba 36 57 4c 7b 39 11 c2 d2 38 86 5c b1 37
       5.543749e-06 0.00023965664 0.00010049728 2.1143129e-05
000030 f4 80 24 b8 3a 2f c7 b8 25 e4 a6 b7 32 70 4b b7
       -3.9220744e-05 -9.497856e-05 -1.989498e-05 -1.2125865e-05
000040 24 20 5f 37 c3 6f 99 b7 b0 9b 43 b8 79 62 69 b8
       1.3299319e-05 -1.8291064e-05 -4.663662e-05 -5.564324e-05
000050 47 fa 2d b7 a1 26 81 38 93 ba 39 37 9d 64 ae b6
       -1.0369876e-05 6.1583945e-05 1.10702995e-05 -5.197317e-06
000060 b6 71 ef b7 a9 4a d5 38 e8 00 87 b7 b1 be c8 b6
       -2.8543971e-05 0.00010170538 -1.6093676e-05 -5.982664e-06
000070 33 0b e2 b7 28 ef 8e b8 18 1c 2b 38 8f e4 31 b9
       -2.6946514e-05 -6.815634e-05 4.079574e-05 -0.0001696518
000080 bf 8e ff 36 8e e0 c4 b7 3c 89 2a b8 a5 5f 4c b9
       7.61621e-06 -2.3469587e-05 -4.0658968e-05 -0.00019490586
000090 c7 46 e8 b7 ec 4d 90 b8 09 39 a4 b7 54 42 11 b8
       -2.7689513e-05 -6.880969e-05 -1.9576883e-05 -3.4632467e-05
0000a0 b6 d2 07 38 74 69 81 38 40 41 24 b8 06 df 20 b5
       3.2382748e-05 6.1708415e-05 -3.9161416e-05 -5.9929187e-07
0000b0 85 86 93 b8 7b 82 74 b8 98 24 45 b8 97 8c 8a b8
       -7.0345624e-05 -5.8295653e-05 -4.700254e-05 -6.60654e-05
0000c0 84 c5 ee 37 54 b1 ad 37 8b ec 42 b7 71 b1 98 38
       2.8463786e-05 2.0705782e-05 -1.16183755e-05 7.280976e-05
0000d0 58 35 45 b5 6e f1 12 b8 d3 05 92 b8 42 35 8c b8
       -7.3465844e-07 -3.503396e-05 -6.962907e-05 -6.68564e-05
0000e0 8f 96 89 b8 53 0f 87 b7 ce d8 50 38 31 0f 34 37
       -6.560713e-05 -1.610039e-05 4.979298e-05 1.0732373e-05
0000f0 c3 10 19 b8 82 1f ea 37 84 d1 08 38 52 24 27 b9
       -3.6493653e-05 2.7909646e-05 3.2620053e-05 -0.00015939891
000100 0c cf b0 37 98 87 bd 37 bf 27 74 b8 fe 3f db 35
       2.1077249e-05 2.2593696e-05 -5.821115e-05 1.6335396e-06
000110 46 2e db b8 f1 68 c9 37 c0 83 34 37 b0 f2 0a 37
       -0.00010451353 2.4009934e-05 1.07595115e-05 8.281946e-06
000120 fd c4 87 38 b0 b5 4f b8 d1 c1 2d b8 7b 96 af 37
       6.4739936e-05 -4.9521856e-05 -4.142692e-05 2.0931699e-05
000130 e2 b9 c0 b7 51 f5 76 b8 98 9f d3 38 38 99 57 35
       -2.2974742e-05 -5.887944e-05 0.00010090991 8.0316704e-07
000140 f0 22 e7 36 66 50 65 38 56 bb f2 37 d2 f2 70 b8
       6.8884037e-06 5.467273e-05 2.8935883e-05 -5.7446603e-05
000150 e9 27 83 38 29 1d 3e 39 3b 1e 0b 38 64 20 c5 b7
       6.2540006e-05 0.00018130675 3.3168337e-05 -2.3499313e-05
000160 94 e9 a2 36 22 b9 9f 37 9d 74 c8 38 85 a0 ee b7
       4.8551683e-06 1.9040486e-05 9.558464e-05 -2.8446559e-05
000170 31 2d bb b7 fe b6 22 b8 84 bd 31 36 60 0c 22 b5
       -2.2313181e-05 -3.8794235e-05 2.6485368e-06 -6.036771e-07
000180 89 b0 b7 37 73 2b 9f b7 1e ef 9e b8 f9 76 1a b9
       2.1897506e-05 -1.897451e-05 -7.578566e-05 -0.00014730905
000190 8f 53 02 b8 b0 7b e0 b8 69 8d 85 b7 aa 4f ac b6
       -3.1072235e-05 -0.00010704191 -1.5920685e-05 -5.1352736e-06
0001a0 96 51 4a b8 2d 02 1b 37 eb 6d c4 37 21 1e 08 38
       -4.8236536e-05 9.2392265e-06 2.3416205e-05 3.2452986e-05
0001b0 8a 73 90 b7 39 f4 bd b8 d1 19 4a 38 1e 2a be 36
       -1.721994e-05 -9.057712e-05 4.8184596e-05 5.6673443e-06
0001c0 d6 ee d0 38 23 00 1d 39 f7 d8 af 38 1a c1 3f 37
       9.9626996e-05 0.00014972738 8.385063e-05 1.1429447e-05
0001d0 95 93 f8 b7 15 79 cd 35 e8 2a a6 b5 fa 32 82 b7
       -2.9632627e-05 1.530893e-06 -1.2380451e-06 -1.5520945e-05
0001e0 e4 64 38 38 24 23 91 b3 1e 32 b2 b8 d9 e9 b2 38
       4.396298e-05 -6.758481e-08 -8.4970365e-05 8.531259e-05
0001f0 a6 63 65 38 ce bc ef 36 1d a8 51 b6 98 ec 4e b6
       5.469066e-05 7.144735e-06 -3.1241282e-06 -3.0834108e-06

layer3.1.weight f4 [128]
000000 09 8d 81 3f 34 de 80 3f be 20 7f 3f 6c 4a 82 3f
       1.0121166 1.0067811 0.99659336 1.0178962
000010 ac 8f 82 3f 97 1a 7f 3f 2e 97 81 3f a1 27 81 3f
       1.0200095 0.9964995 1.0124261 1.0090219
000020 bc 27 82 3f d1 8a 80 3f 7e 99 80 3f 12 b4 81 3f
       1.0168376 1.0042363 1.0046842 1.0133078
000030 71 9b 7f 3f e7 2c 82 3f 54 b2 80 3f c1 9a 81 3f
       0.9984656 1.0169953 1.0054421 1.0125352
000040 5e bc 7e 3f 3b 66 82 3f dd e6 80 3f 84 39 81 3f
       0.99506176 1.0187448 1.0070454 1.0095677
000050 ce 2d 81 3f dd c0 80 3f 30 5f 80 3f 92 2a 80 3f
       1.0092103 1.0058857 1.0029049 1.0012991
000060 ff 48 80 3f 2c 21 81 3f 6d c0 81 3f dc 8b 82 3f
       1.0022277 1.0088248 1.0136849 1.0198932
000070 73 d6 81 3f 94 c0 7f 3f 1a 17 81 3f 22 e1 80 3f
       1.014357 0.99903226 1.0085175 1.0068705
000080 02 8b 83 3f 5a 1b 7e 3f 30 42 81 3f 55 42 81 3f
       1.0276797 0.99260485 1.0098324 1.0098368
000090 72 7d 80 3f 30 12 81 3f 8d bf 7f 3f dc fb 81 3f
       1.0038283 1.0083675 0.9990166 1.0154986
0000a0 bc 23 80 3f df 42 81 3f bc a7 80 3f 38 fb 7f 3f
       1.0010905 1.0098532 1.0051188 0.99992704
0000b0 0f 1b 80 3f 8d e6 82 3f b1 64 84 3f f1 d3 81 3f
       1.0008258 1.0226609 1.0343229 1.0142804
0000c0 ae 22 7e 3f 35 c5 80 3f ec 6e 80 3f fd 50 82 3f
       0.99271667 1.0060183 1.0033851 1.0180966
0000d0 99 80 80 3f a5 e8 83 3f bd 78 7f 3f 24 a7 7f 3f
       1.0039245 1.0305372 0.99793607 0.9986441
0000e0 ca ca 80 3f 70 b2 81 3f 52 64 83 3f 7d f6 80 3f
       1.0061886 1.013258 1.026499 1.0075222
0000f0 1c 3a 82 3f 68 dd 80 3f 11 24 81 3f a2 5f 81 3f
       1.0173984 1.0067568 1.0089132 1.010731
000100 59 17 82 3f 65 c2 80 3f 53 55 80 3f ff d7 7f 3f
       1.0163375 1.0059325 1.0026039 0.9993896
000110 16 0a 81 3f 64 d0 81 3f 17 bc 80 3f b2 4b 80 3f
       1.0081203 1.0141721 1.00574 1.00231
000120 d2 2d 81 3f 8d 71 81 3f dd ca 80 3f 7a 8c 7f 3f
       1.0092108 1.0112778 1.0061909 0.99823725
000130 da 23 81 3f bd 0b 82 3f f3 d9 7f 3f 9f 2e 82 3f
       1.0089066 1.0159832 0.9994194 1.0170478
000140 b5 3b 81 3f 47 11 81 3f 98 31 81 3f 03 a2 80 3f
       1.0096346 1.0083398 1.009326 1.0049442
000150 04 b7 82 3f d4 8d 81 3f f6 e5 7e 3f b8 19 83 3f
       1.0212102 1.0121408 0.9956964 1.0242224
000160 10 58 7c 3f 0b 33 7e 3f 53 c4 7f 3f b7 3d 81 3f
       0.9857187 0.99296635 0.9990894 1.0096959
000170 a0 ed 81 3f f0 55 7f 3f a2 99 80 3f 52 a2 80 3f
       1.0150642 0.99740505 1.0046885 1.0049536
000180 5b da 7c 3f 6d 54 81 3f ef 5a 82 3f 43 4f 83 3f
       0.98770684 1.010389 1.0184001 1.0258564
000190 2e 22 7f 3f 91 01 82 3f a5 be 80 3f 46 6b 80 3f
       0.9966153 1.0156728 1.005818 1.0032737
0001a0 ed 8b 7e 3f 1c 26 80 3f 9b 41 81 3f 89 f9 80 3f
       0.9943226 1.001163 1.0098146 1.0076152
0001b0 89 a1 7e 3f b5 8c 81 3f 36 f2 81 3f 48 74 7d 3f
       0.99465233 1.0121065 1.0152042 0.99005556
0001c0 cd 88 82 3f b5 e0 80 3f b9 d1 83 3f 1f 9f 82 3f
       1.0197998 1.0068575 1.0298377 1.020481
0001d0 53 95 7f 3f 1c 2b 82 3f 0c e4 81 3f e8 9c 81 3f
       0.99837226 1.0169406 1.0147719 1.0126009
0001e0 46 1f 80 3f 8b 2e 7c 3f 51 42 81 3f 2b 16 81 3f
       1.0009544 0.9850852 1.0098363 1.008489
0001f0 d8 60 81 3f be 29 81 3f 2a 4f 7e 3f d5 6b 7f 3f
       1.0107679 1.0090864 0.99339545 0.99773914

layer3.1.bias f4 [128]
000000 3e e5 28 3b cd 20 0f ba 8f ff 39 bc 68 65 d9 3b
       0.0025771405 -0.0005459905 -0.011352434 0.006634403
000010 f2 0f 31 3c 78 4b 41 ba 4f a7 cf 3b ff 16 e8 3a
       0.010807024 -0.00073736114 0.0063370834 0.0017707049
000020 22 95 8e 3b d3 da ec b9 d0 fe be 37 36 38 79 3b
       0.004351274 -0.00045176464 2.2768421e-05 0.003802789
000030 ee 80 81 bb c1 cf 01 3c 81 e1 6a 3a 2a 05 bf 3b
       -0.003952137 0.007923068 0.00089599943 0.005829473
000040 11 c6 43 bb d7 71 ac 3a d3 5c ad 3b df fb a6 3a
       -0.0029872695 0.0013156486 0.0052906065 0.0012739858
000050 cc 90 00 3b 67 6c 0f bb fd c8 3a bc 52 10 ab bb
       0.0019617556 -0.0021884681 -0.011400458 -0.0052204514
000060 fa 01 72 3a ab 78 89 bb 62 7d 4f 3b 8e e7 19 3c
       0.0009231862 -0.004195293 0.0031660427 0.009393586
000070 8c a9 52 3b 2d 82 5e 39 7a 90 6e b9 2d 18 d8 39
       0.0032144515 0.00021220064 -0.0002275127 0.00041216743
000080 c1 a9 19 3c 85 c8 1a bc ce 44 b5 ba ea 2e 90 3b
       0.009378851 -0.009447222 -0.001382971 0.004400124
000090 33 5e 31 bb 7d d1 62 3b f5 29 d3 bb 63 30 f2 39
       -0.0027064204 0.0034609728 -0.0064442107 0.00046193888
0000a0 72 54 e9 b9 c4 3f f4 3a 8e ba 52 ba 08 49 bc bb
       -0.0004450414 0.0018634726 -0.0008038663 -0.0057460107
0000b0 57 73 34 bb 31 74 18 3c b1 29 95 3c 44 ad e7 3b
       -0.0027534568 0.009305046 0.018208357 0.0070702154
0000c0 6c 08 3e bc d4 6e 86 ba ec d2 e8 ba c7 db b3 3b
       -0.011598688 -0.0010256418 -0.0017763055 0.005488846
0000d0 32 15 10 bb 94 63 3f 3c 8b 03 13 ba f1 84 df ba
       -0.002198529 0.011681456 -0.0005608133 -0.001705317
0000e0 7a 1f 8f 3b d3 68 99 3b 7f 11 44 3c a5 8d 02 3a
       0.004367766 0.0046816855 0.011967062 0.0004980213
0000f0 d4 d7 d7 3b 15 69 aa 3b e7 e9 41 3b 8a 75 81 3b
       0.006587008 0.005200515 0.002958888 0.0039507793
000100 0a e3 21 3c a7 23 53 3b cc b3 48 ba 07 99 cb bb
       0.0098807905 0.0032217295 -0.00076561864 -0.0062133106
000110 fe 34 b1 3a 33 d1 74 3b a0 4a cd bb 33 28 e9 ba
       0.0013519821 0.0037356138 -0.0062649995 -0.001778847
000120 c6 39 b5 38 8a fd 2f 3b 53 2e 88 bb 88 c1 8a 3a
       8.641514e-05 0.0026854002 -0.004155913 0.0010586241
000130 12 36 9f 3b 73 2e 13 3c 32 91 cd bb 18 72 cc 3b
       0.0048587406 0.008983242 -0.006273412 0.006239187
000140 e1 a2 b7 3a 2e f3 93 3a cc 7d 76 3b 88 88 77 ba
       0.0014010334 0.0011287683 0.0037611602 -0.0009442647
000150 92 5b 83 3b f0 f8 be 3b 95 dd 31 bc fe d1 0f 3b
       0.0040087188 0.0058280155 -0.010856052 0.0021945233
000160 56 06 7d bc 82 59 45 bb d4 4a d5 bb ca 23 d3 3b
       -0.015443405 -0.0030113165 -0.0065091643 0.0064434754
000170 60 03 90 3b 49 20 c7 ba 3a 9b 19 3a a3 d3 c5 3a
       0.0043949336 -0.0015192117 0.00058596174 0.001509298
000180 da e5 fa bb 1e 0d 2d bc a1 6e dd 3b 2e 7e 82 3c
       -0.007656795 -0.010562209 0.0067575728 0.015929308
000190 24 29 b9 ba 0a 90 e2 3b a3 54 7c 3b 17 a2 c1 bb
       -0.0014126641 0.0069141435 0.0038502596 -0.005909215
0001a0 5a e6 22 bc b2 f5 12 bc b0 83 fb 3b 12 02 6b 3b
       -0.009942615 -0.008969711 0.0076756105 0.0035859388
0001b0 28 6d ef bb 9e 5d 2c 3b 74 f2 fb ba fa 36 41 bc
       -0.0073067136 0.0026300917 -0.0019222037 -0.011792893
0001c0 cc ca 1f 3c 31 f4 e4 39 88 2b 26 3c b7 c3 c3 3a
       0.00975294 0.00043669486 0.010142215 0.0014935647
0001d0 a5 76 63 bb 66 75 e4 3b 97 c2 28 3a 2e 42 af 3b
       -0.0034708169 0.006972003 0.00064376876 0.0053484654
0001e0 9d 02 0a bc 5c 03 fb bb b1 0e 24 3a 97 cc b4 3b
       -0.008423475 -0.0076603126 0.00062582927 0.005517553
0001f0 a8 92 7e bb 7f 0b a1 3b 22 20 2b bc c3 33 89 bb
       -0.0038844738 0.0049147005 -0.010444673 -0.0041870787
