Model/model.pth (torch, 914350 bytes, 20 tensors)

layer1.0.weight f4 [64, 1, 9]
-0.7288764 0.032781735 -0.5577027 0.05475716 0.484452 0.44191375 -0.36318874 0.28415072
-1.1375996 0.48645017 -0.7820878 -0.13862462 0.7163895 -0.6980043 0.11416742 -0.076715514
-0.2858669 -1.0215094 -0.008025544 -0.53645843 -0.38078955 -0.2834798 0.4663489 0.3118382
0.9804026 0.5598625 0.38917056 -0.03325862 -0.4519809 -0.45018297 0.17152253 -0.42773244
0.3797537 -0.29630676 1.2381988 0.73281074 0.45408306 -0.48935443 -0.7164936 -0.42642853
0.50014323 1.0754113 0.100450434 -0.58376527 -0.6852861 -0.21409625 0.16026013 0.27435687
0.26673976 -0.2313586 0.051757604 -0.20501731 0.36060604 1.4166857 -0.92085344 -0.09977961
-0.017844453 -0.060651004 -0.33148298 -0.60752785 0.32088777 0.95446414 0.5329386 0.05757078
0.18471248 0.29847986 -0.032367844 0.937701 -0.23904541 0.07926817 0.016608432 -0.51813847
-0.4369966 0.16029277 0.66367453 0.2280747 -0.13014267 0.3972116 -0.040896077 -1.2091298
-0.5120118 -0.21241657 -0.19275688 1.966422 -0.26505166 0.0033724282 -0.34222427 -0.29040286
-0.5665943 -0.22219333 0.06247889 0.25737715 0.2457193 -0.20501396 1.2027454 0.1847054
0.012708035 0.79577184 -0.90726966 0.12920178 0.015707519 0.08994862 -0.36453095 0.8386738
-0.70133775 0.35042912 -0.4293986 0.70063114 -0.16971098 -0.29402992 0.11535784 0.20978141
-0.16943017 0.22448026 0.5591945 -0.030485302 -0.08328358 -0.93971086 0.11974535 0.6357261
-0.27169463 0.3384386 -0.48132282 -0.68281233 0.7271259 -0.28993756 0.20993187 0.41331264
-0.29296836 0.027061451 -0.7268067 0.4637756 0.009224017 1.1351899 -0.25820142 0.42785805
-0.16780879 0.026290283 -0.025140598 -0.39933592 -0.51469 -0.3212073 0.8574516 -0.43039677
-0.49037308 -0.45373178 0.6887481 0.9401042 -0.18894964 -0.59878504 -0.55813974 0.36264223
0.61259085 0.9673333 -0.17038874 -0.31952706 0.43559268 -0.4249675 0.08455972 0.19450244
-0.9949783 0.4904996 -0.4520769 -0.039746575 -0.003726778 -0.054827865 0.68118036 0.40533558
-0.0046005305 1.2115891 -0.8379625 -0.255157 0.23455702 -0.313995 -0.35375583 -0.0937782
-0.17768925 1.2742169 -0.45635477 0.10629517 0.6466794 -0.004802704 0.17224562 -0.021952603
1.086676 -0.5740655 -1.14744 0.15659094 0.052946135 -0.80020565 0.5778343 -0.43476814
-0.35465097 0.6773018 -0.7727456 0.16210075 -0.31787106 -0.54505724 0.94353896 -0.50497836
0.44814605 0.02692225 -0.97731936 0.42745602 -0.31023237 -0.19654481 0.5838 -0.09892064
-0.060948126 -0.29903758 0.0477072 0.77547675 0.6399977 -0.26910838 -0.29160023 -1.0572262
0.29957563 1.1615238 -0.5180847 -0.6653596 0.31683138 -0.19633456 -0.29614836 -0.7327247
0.28587502 0.005747058 -0.5868415 0.2243738 -0.41161406 0.62396175 -0.5850121 0.55651647
-0.44084018 0.9901416 -0.294754 0.16425283 0.060479976 -0.47272122 -0.60008794 -0.060268227
-0.3526765 -1.0750809 -0.00075948174 -0.3198403 -0.20980336 0.43441275 0.7111209 0.21467541
-0.8310751 -0.45863223 -0.24417916 0.64021444 0.63771504 0.043667432 -0.069039874 0.06457333
00000000: a597 3abf 2446 063d 9bc5 0ebf 0b49 603d
00000010: 180a f83e 8542 e23e e0f3 b9be 347c 913e
00000020: dd9c 91bf ff0f f93e e836 48bf 9df3 0dbe
00000030: 4d65 373f 69b0 32bf 9cd0 e93d 061d 9dbd
00000040: 255d 92be d2c0 82bf 927d 03bc 5755 09bf
00000050: d9f6 c2be 4424 91be 48c5 ee3e 42a9 9f3e
00000060: aafb 7a3f 2653 0f3f 5d41 c73e 313a 08bd
00000070: 0a6a e7be 627e e6be 9aa3 2f3e bfff dabe
00000080: 146f c23e 85b5 97be 4c7d 9e3f 7c99 3b3f
00000090: 937d e83e aa8c fabe 206c 37bf d754 dabe
000000a0: 6309 003f 14a7 893f f5b8 cd3d a471 15bf
000000b0: e96e 2fbf 0c3c 5bbe 3b1b 243e 8178 8c3e
000000c0: 1d92 883e 45e9 6cbe c8ff 533d 0ff0 51be
000000d0: 5ba1 b83e f555 b53f 0dbd 6bbf 4159 ccbd
000000e0: 882e 92bc 306d 78bd 23b8 a9be f286 1bbf
000000f0: 674b a43e c357 743f aa6e 083f 57cf 6b3d
00000100: 4525 3d3e 5ad2 983e 2594 04bd 2c0d 703f
00000110: 52c8 74be 5a57 a23d 680e 883c b9a4 04bf
00000120: 05be dfbe ca23 243e 93e6 293f 6a8c 693e
00000130: 1f44 05be 525f cb3e a582 27bd c4c4 9abf
00000140: 3513 03bf bb83 59be 0f62 45be b7b3 fb3f
00000150: dab4 87be f503 5d3b 0538 afbe afaf 94be
00000160: 530c 11bf a686 63be dde9 7f3d f0c6 833e
00000170: d79d 7b3e 2eef 51be 90f3 993f 6a23 3d3e
00000180: 5d35 503c b4b7 4b3f d342 68bf 794d 043e
00000190: 0ead 803c fb36 b83d cda3 babe 53b3 563f
000001a0: df8a 33bf 726b b33e 22da dbbe 905c 333f
000001b0: b7c8 2dbe 178b 96be bb40 ec3d f0d0 563e
000001c0: 1a7f 2dbe 27de 653e 5f27 0f3f 50bc f9bc
000001d0: 9590 aabd e490 70bf 0d3d f53d f2be 223f
000001e0: 8f1b 8bbe d347 ad3e f26f f6be cacc 2ebf
000001f0: ec24 3a3f b272 94be 61f8 563e b79d d33e
00000200: f3ff 95be faaf dd3c 0110 3abf ff73 ed3e
00000210: 5520 173c e74d 913f fa32 84be 3610 db3e
00000220: 11d6 2bbe b85e d73c a8f3 cdbc c275 ccbe
00000230: b9c2 03bf 4975 a4be f381 5b3f f75c dcbe
00000240: 2e12 fbbe 884f e8be cc51 303f abaa 703f
00000250: 047c 41be fa49 19bf 3fe2 0ebf 3eac b93e
00000260: c1d2 1c3f 28a3 773f 637a 2ebe 0d99 a3be
00000270: 0106 df3e 5795 d9be a52d ad3d a62b 473e
00000280: e6b6 7ebf c322 fb3e a076 e7be 4ecd 22bd
00000290: f63c 74bb 2f93 60bd d661 2e3f 2588 cf3e
000002a0: 0cc0 96bb 5a15 9b3f b684 56bf f0a3 82be
000002b0: b72f 703e f4c3 a0be 7c1f b5be c90e c0bd
000002c0: 2cf4 35be 8a19 a33f 55a7 e9be 48b1 d93d
000002d0: c88c 253f 0060 9dbb 2861 303e f2d5 b3bc
000002e0: 3318 8b3f f5f5 12bf 50df 92bf 6059 203e
000002f0: 0cde 583d 47da 4cbf f3ec 133f ee99 debe
00000300: d094 b5be a763 2d3f a8d2 45bf bdfd 253e
00000310: ffbf a2be df88 0bbf c58b 713f 4346 01bf
00000320: 6673 e53e 0d8c dc3c 9a31 7abf 84db da3e
00000330: c7d6 9ebe 0b43 49be eb73 153f e896 cabd
00000340: bea4 79bd 741b 99be a068 433d a585 463f
00000350: e4d6 233f 93c8 89be a04c 95be 3053 87bf
00000360: fa61 993e d0ac 943f 33a1 04bf 0255 2abf
00000370: b937 a23e ed0b 49be c2a0 97be d993 3bbf
00000380: 365e 923e d151 bc3b 3f3b 16bf 3fc2 653e
00000390: 14bf d2be f5bb 1f3f 5ac3 15bf dd77 0e3f
000003a0: ceb5 e1be eb79 7d3f ffe9 96be e531 283e
000003b0: dab9 773d 8408 f2be 5d9f 19bf d1db 76bd
000003c0: 0492 b4be 409c 89bf f517 47ba 1cc2 a3be
000003d0: b1d6 56be 596b de3e 050c 363f dfd3 5b3e
000003e0: 56c1 54bf d8d1 eabe 1a0a 7abe 18e5 233f
000003f0: 4b41 233f 9fdc 323d c764 8dbd 063f 843d

layer1.0.bias f4 [64]
-0.000139368 0.000857067 0.0018244471 0.0005856836 0.0011252344 -0.00010741553 -0.0004700123 -0.0013527973
0.0013460122 -0.0009443909 -0.0018094152 -0.0025683015 -1.1729604e-08 -0.0014301569 0.0011245247 -0.00037854473
0.004527941 0.0021942884 0.0001476669 0.0005049192 0.001771964 0.008339407 0.0023168796 0.0018690538
0.0003340518 -0.0026544775 0.00037718745 0.0007445513 0.009790676 -0.0011021565 0.0020844648 0.00024244435
0.0025011937 -0.00072193256 -0.0022526556 -0.00086702313 -0.009280873 -0.0011359247 0.0032206418 -0.00020735958
0.0003650075 0.00022217643 0.00043697417 0.0018533368 -0.00013300477 0.00057171803 -0.0010670398 0.004290812
0.0018620129 0.0012363088 0.0031795825 0.006007486 -0.00023152279 -0.0011357949 -0.003150002 0.0005989251
0.0010408682 -0.00011358605 0.0006866519 0.0037441207 -0.0043237004 -0.0021425083 0.0002531074 -0.0010981739
00000000: 5023 12b9 cbac 603a 4922 ef3a 9088 193a
00000010: 9a7c 933a 4644 e1b8 fc6b f6b9 5850 b1ba
00000020: ad6c b03a 0091 77ba e629 edba f350 28bb
00000030: 5883 49b2 1a74 bbba ca64 933a 6a77 c6b9
00000040: 1f5f 943b 0dce 0f3b 08d7 1a39 8e5c 043a
00000050: 3f41 e83a 02a2 083c cad6 173b 0afb f43a
00000060: ac23 af39 bef6 2dbb 3ec1 c539 fe2d 433a
00000070: 1269 203c 3c76 90ba 849b 083b a938 7e39
00000080: 11eb 233b 1340 3dba 4aa1 13bb f048 63ba
00000090: ce0e 18bc 4fe3 94ba 6711 533b aa6e 59b9
000000a0: 7a5e bf39 08f8 6839 ae19 e539 aaeb f23a
000000b0: 3277 0bb9 59df 153a eadb 8bba f199 8c3b
000000c0: c90e f43a a40b a23a 8b60 503b 72da c43b
000000d0: edc4 72b9 f4de 94ba 4470 4ebb 2f01 1d3a
000000e0: be6d 883a 0c35 eeb8 6e00 343a ec5f 753b
000000f0: d4ad 8dbb 5369 0cbb 80b3 8439 9af0 8fba

layer1.1.weight f4 [64]
0.81701255 1.2003148 1.2475915 0.87739563 1.1127002 0.56896335 0.8933304 0.39540038
0.4194948 1.0741028 1.1824571 1.0937377 0.032666605 1.2765474 0.9857802 0.6394015
1.2824577 1.2791872 0.9991893 0.38062558 0.83058214 1.656119 1.4334865 1.2332127
0.8884992 1.2908481 0.60502213 0.84075385 0.96618295 0.8008182 0.7372621 0.8924052
1.0639796 0.9321039 0.7186102 1.2423503 1.3203952 0.9729075 1.0908641 0.72548425
0.67937845 0.7154725 0.87768716 0.6693048 1.1428066 0.88473654 1.3365841 0.8876958
1.1200285 0.9908703 0.9440899 0.9345909 1.3514565 1.0054091 1.6828135 0.8675643
0.96272665 0.9310869 1.0890445 1.1404785 1.2368319 1.016065 1.2136561 0.9827829
00000000: bc27 513f eaa3 993f 14b1 9f3f 009d 603f
00000010: f66c 8e3f 95a7 113f 4db1 643f eb71 ca3e
00000020: 06c8 d63e 337c 893f c15a 973f 99ff 8b3f
00000030: 6bcd 053d e865 a33f 175c 7c3f d1af 233f
00000040: 9327 a43f 68bc a33f dfca 7f3f 5be1 c23e
00000050: 08a1 543f b5fb d33f 7c7c b73f ead9 9d3f
00000060: af74 633f 833a a53f bbe2 1a3f a53b 573f
00000070: c457 773f 6c02 4d3f 36bd 3c3f ab74 643f
00000080: 7c30 883f 5c9e 6e3f d7f6 373f 5605 9f3f
00000090: b602 a93f 7710 793f 6fa1 8b3f 56b9 393f
000000a0: bfeb 2d3f 3529 373f 1bb0 603f 8f57 2b3f
000000b0: 7d47 923f 187e 623f 3015 ab3f 0840 633f
000000c0: 185d 8f3f ada9 7d3f e0af 713f 5941 6f3f
000000d0: 87fc ac3f 3fb1 803f 6f66 d73f b218 5e3f
000000e0: 4175 763f b65b 6e3f cf65 8b3f 33fb 913f
000000f0: 8250 9e3f 6b0e 823f 1559 9b3f a997 7b3f

layer1.1.bias f4 [64]
-0.100076295 -0.8796104 -0.08551661 -0.8285165 -0.7718813 -1.219068 -0.3818645 -0.50296026
-0.1959092 0.2864999 -0.8342401 -0.43313372 -0.42330268 0.0323164 -1.3378414 -0.4323637
0.07229457 -0.18422292 -1.4040873 -0.37230816 -0.12056579 -0.10426479 -0.13795765 -1.259801
-0.004161983 -0.8347987 -0.5803695 -0.5532785 -0.02895067 -0.3892244 -0.8399475 -1.4841809
-0.37861246 -1.1878909 -0.102276936 -0.13525 -0.13461386 0.11180285 -0.15260866 -1.1566477
-0.83803976 -1.0923172 -0.36262295 -0.54794663 -0.49899748 -1.3202896 -0.1856423 0.12915024
-0.5876651 -0.44680837 -2.1952495e-05 -0.09813991 -0.45355797 -0.20758922 -0.19291747 -1.3836826
0.20644954 0.026949901 -1.1576233 0.14666772 -1.3710179 -0.050589122 -0.19771719 -0.48636356
00000000: cdf4 ccbd 262e 61bf 5523 afbd a819 54bf
00000010: 039a 45bf 6c0a 9cbf be83 c3be 01c2 00bf
00000020: 6c9c 48be 1db0 923e c290 55bf b4c3 ddbe
00000030: 21bb d8be 345e 043d 633e abbf c65e ddbe
00000040: 2d0f 943d efa4 3cbe 22b9 b3bf 2d9f bebe
00000050: 32eb f6bd c788 d5bd c544 0dbe 2941 a1bf
00000060: 3e61 88bb 5eb5 55bf 1893 14bf a9a3 0dbf
00000070: f529 edbc 6c48 c7be cd06 57bf a4f9 bdbf
00000080: 7ed9 c1be cf0c 98bf 9276 d1bd fa7e 0abe
00000090: 37d8 09be e5f8 e43d 7245 1cbe 080d 94bf
000000a0: c689 56bf 0dd1 8bbf b7a9 b9be 3b46 0cbf
000000b0: 997c ffbe 40ff a8bf 0419 3ebe f63f 043e
000000c0: 3871 16bf 11c4 e4be a026 b8b7 94fd c8bd
000000d0: c038 e8be 4592 54be 288c 45be 831c b1bf
000000e0: 8267 533e 0ac6 dc3c 002d 94bf 1030 163e
000000f0: 847d afbf 8a36 4fbd 6076 4abe a504 f9be

layer1.1.running_mean f4 [64]
0.0029009825 -0.003499745 0.009775348 0.0036073509 0.004978983 0.0012446945 0.0044537373 -0.0013065354
-0.0032835908 -0.007573975 0.0032286749 0.00050630415 0.0012419441 0.0015447915 0.00023976364 -0.002751215
-0.00071347575 -0.003272286 0.003943 0.002893999 -0.0022636375 0.007070664 0.0006644064 0.0014097139
-0.001109754 0.00097426015 -0.0023596871 -0.003993038 0.006500804 -0.0036359248 0.006440395 0.0016255735
0.00046642148 0.0040191305 -0.0076953014 -0.006194269 -0.0079302145 -0.0032975036 0.00053581165 0.0017227815
0.0022033874 0.0023012806 0.0064033517 0.0034639926 0.00040071714 0.005346355 -0.0004948438 -0.0030922526
0.0054804427 0.0046115736 -0.0006739652 0.009399712 0.0050369655 -0.005189258 -0.00519391 -0.0008776136
-0.0065661557 0.00140471 0.0025792136 0.0027973517 -0.002881486 -0.003743279 -0.0010453189 -0.006205516
00000000: 691e 3e3b fa5b 65bb c828 203c 4e69 6c3b
00000010: bd26 a33b 0425 a33a a8f0 913b 0e40 abba
00000020: 8331 57bb 1b2f f8bb 2d98 533b 7fb9 043a
00000030: bbc8 a23a 9a7a ca3a 1069 7b39 ba4d 34bb
00000040: 8c08 3bba d973 56bb 4834 813b 3fa9 3d3b
00000050: 8959 14bb 07b1 e73b 8f2b 2e3a 26c6 b83a
00000060: 2a75 91ba 7e65 7f3a fba4 1abb 08d8 82bb
00000070: b204 d53b b248 6ebb f309 d33b 3211 d53a
00000080: 088a f439 e9b2 833b de28 fcbb 4bf9 cabb
00000090: bbed 01bc ee1a 58bb b675 0c3a f4ce e13a
000000a0: b566 103b 15d1 163b 35d3 d13b 2704 633b
000000b0: 5817 d239 7a30 af3b 68b8 01ba 64a7 4abb
000000c0: 4995 b33b af1c 973b 0aad 30ba 4001 1a3c
000000d0: 210d a53b a70a aabb ad31 aabb a70f 66ba
000000e0: e828 d7bb 3f1e b83a 0608 293b c653 373b
000000f0: 50d7 3cbb cd51 75bb 1503 89ba a457 cbbb

layer1.1.running_var f4 [64]
0.967055 4.084727 2.0721068 3.0518365 2.5543432 2.0371215 2.9328516 0.7493135
4.881344 4.873058 1.8541149 0.9988349 1.164244 1.3676429 0.910258 2.2385442
3.137917 1.3899612 1.7744334 1.5309613 5.8231745 0.8219455 1.0353705 1.4272634
5.702318 0.8625253 3.3116152 1.7492957 0.8813603 4.2954493 2.117696 1.5721036
3.4951828 2.4697003 1.8151225 4.2913284 0.70894635 4.2830234 1.4907086 1.8027476
1.1705793 1.2792033 3.1016157 1.0149372 4.778963 2.4539213 1.8760726 5.402045
3.267437 2.617429 4.402779 1.6140898 3.6170542 1.5946912 0.37872562 2.1358526
3.9090896 2.045799 1.5162024 5.932036 0.78806335 3.530565 1.5226059 6.586541
00000000: eb90 773f 15b6 8240 669d 0440 4a51 4340
00000010: 5c7a 2340 3360 0240 d7b3 3b40 02d3 3f3f
00000020: f833 9c40 17f0 9b40 a353 ed3f a5b3 7f3f
00000030: f305 953f ec0e af3f ab06 693f 4f44 0f40
00000040: a2d3 4840 40ea b13f a220 e33f 8af6 c33f
00000050: 7257 ba40 056b 523f 0587 843f 91b0 b63f
00000060: 6479 b640 75ce 5c3f 81f1 5340 ece8 df3f
00000070: d4a0 613f 5274 8940 5588 0740 b13a c93f
00000080: 13b1 5f40 920f 1e40 ef55 e83f 9052 8940
00000090: 827d 353f 870e 8940 8acf be3f 6fc0 e63f
000000a0: 8bd5 953f efbc a33f df80 4640 76e9 813f
000000b0: 44ed 9840 0c0d 1d40 2623 f03f 8ddd ac40
000000c0: b01d 5140 f583 2740 91e3 8c40 7f9a ce3f
000000d0: d17d 6740 d71e cc3f 53e8 c13e cfb1 0840
000000e0: 862e 7a40 5fee 0240 ec12 c23f 3dd3 bd40
000000f0: 85be 493f c7f4 6140 c0e4 c23f f2c4 d240

layer2.0.weight f4 [64, 64, 5]
-0.3254792 -0.022918412 -0.15367195 0.2696595 0.28138965 0.23310803 0.059946306 -0.26037517
0.23227417 0.5168905 0.14455676 0.44763657 0.401126 0.27731773 0.623646 -0.38556826
0.3478665 0.66731673 0.0012336737 0.3925845 -0.42140988 -0.0041037956 0.08208605 0.71766907
-0.038880873 -0.05585919 0.19854854 -0.023633394 -0.2697145 0.011605709 -0.22382332 -0.09103811
0.17061837 -0.007223091 0.4320506 -0.15069595 -0.2082517 -0.019966645 0.086218424 -0.046231646
0.26117212 -0.1635127 0.0853402 0.22995353 -0.04481241 -0.1357408 -0.120368704 -0.040076774
0.34380454 -0.4070798 -0.746125 -0.18701486 0.24624701 0.019125877 0.8268032 0.065464385
0.1261248 0.49199775 0.18054543 0.14934596 -0.020796686 0.019156825 -0.016611898 -0.023960114
0.01092214 0.18791322 -0.20006886 -0.030241838 -0.29143092 0.43192366 -0.2566542 -0.17388436
0.11820323 0.04825922 0.008799148 -0.0024774643 0.106330104 0.11068967 0.00012992085 0.32740018
0.42466444 -0.6478004 0.11729261 -0.28025812 0.4981831 -0.59552366 0.7423559 -0.36184275
0.04690116 -0.6115932 -0.40915626 0.034968115 0.28148502 0.37137008 -0.1012872 -0.08242065
0.045526024 0.08401565 0.37259826 0.11165418 -0.2967099 -0.45429748 0.65993625 0.29974142
0.71359336 0.598118 0.51876426 0.44191608 0.20987155 0.06665768 -0.1367728 0.43146765
-0.45386916 -0.019050311 -0.25929233 -0.51207286 -0.29536197 0.13242571 0.22457942 0.0033666336
-0.25206006 -0.24786964 -0.07906502 -0.003937314 -0.107103735 0.37346578 -0.33708233 0.30655468
0.08937488 0.43165118 -0.15229793 0.12928669 -0.09213123 0.45610026 0.046524253 0.21570005
0.062508866 0.07216408 -0.15080868 -0.24678425 -0.02020648 0.023679316 -0.02890638 0.040312007
0.49198276 0.097167455 0.37075225 0.6358911 0.11919807 0.021389853 -0.15630823 0.15301082
0.16505004 0.16226661 -0.13462523 0.028184298 0.40583277 0.28580105 0.022010002 0.295077
-0.34875983 -0.17768623 0.19000867 0.057957303 0.5084915 0.6043022 0.029238516 0.287023
-0.0026189552 -0.03595242 0.088904835 0.18348132 -0.0487643 -0.0023186328 -0.23091932 -0.6189512
0.30401456 0.45315686 0.19622308 0.10518041 0.31682336 0.33974445 0.05632623 0.1898008
0.5208288 -0.17265216 0.5675853 -0.1289792 0.48469585 -0.2483136 0.09161604 0.11347255
-0.09566543 -0.058387257 -0.0032791595 0.4307554 0.29351154 0.23149419 0.16896196 0.105769634
-0.37444365 -0.13663372 0.08066215 0.14607564 -0.044013117 -0.29305017 -0.30055296 0.2691654
0.21428163 -0.04418608 -0.1499846 -0.12524255 0.1388708 0.38827288 0.8338519 -0.15000804
-0.10790585 -0.20833337 0.12500368 0.17332913 -0.27454692 0.5779641 0.14825824 0.4641905
-0.11552785 0.018893851 -0.14929351 0.07325377 -0.034932658 0.21847221 0.29353648 0.09148164
0.2560004 0.32733566 0.19213754 0.051773123 -0.24900417 0.050751694 0.17280121 0.19099009
-0.37548986 0.32587594 0.8102919 0.12671344 0.4658615 -0.16261935 0.11301331 0.25761628
0.89825314 -0.15279646 -0.50852835 -0.14479363 0.026425583 0.062129628 0.4376718 -0.016572887
00000000: 36a5 a6be 65bf bbbc 2e5c 1dbe cf10 8a3e
00000010: 4e12 903e dfb3 6e3e 428a 753d e54f 85be
00000020: 48d9 6d3e f052 043f b006 143e 9f30 e53e
00000030: 6360 cd3e 97fc 8d3e 44a7 1f3f 3469 c5be
00000040: 8f1b b23e 45d5 2a3f 38b3 a13a d600 c93e
00000050: 09c3 d7be 2279 86bb bb1c a83d 29b9 373f
00000060: 8d41 1fbd 9bcc 64bd 4f50 4b3e d29a c1bc
00000070: 0518 8abe df25 3e3c f131 65be 3072 babd
00000080: 95b6 2e3e aeaf ecbb bc35 dd3e 0a50 1abe
00000090: ef3f 55be 1791 a3bc 4993 b03d 655d 3dbd
000000a0: 5ab8 853e e06f 27be d8c6 ae3d f078 6b3e
000000b0: 388d 37bd a3ff 0abe de83 f6bd 8b27 24bd
000000c0: 2607 b03e c36c d0be 0c02 3fbf d380 3fbe
000000d0: 2d28 7c3e dfad 9c3c 60a9 533f 3112 863d
000000e0: dc26 013e 21e7 fb3e e7e0 383e 26ee 183e
000000f0: d05d aabc c6ee 9c3c ad15 88bc 0048 c4bc
00000100: c7f2 323c 536c 403e dade 4cbe bbbd f7bc
00000110: 6f36 95be 1925 dd3e 2e68 83be be0e 32be
00000120: 8914 f23d 76ab 453d 4d2a 103c f45c 22bb
00000130: 99c3 d93d 44b1 e23d 5d3b 0839 ffa0 a73e
00000140: 9e6d d93e 3fd6 25bf 1c37 f03d fe7d 8fbe
00000150: db11 ff3e 3d74 18bf 090b 3e3f 7443 b9be
00000160: 6e1b 403d 5f91 1cbf ee7c d1be ba3a 0f3d
00000170: ce1e 903e 3824 be3e aa6f cfbd 28cc a8bd
00000180: 7f79 3a3d 6610 ac3d 33c5 be3e f2aa e43d
00000190: 5cea 97be ae99 e8be 95f1 283f b577 993e
000001a0: 0eae 363f 431e 193f bccd 043f d342 e23e
000001b0: 91e8 563e d283 883d 2b0e 0cbe 54e9 dc3e
000001c0: 8a61 e8be 660f 9cbc f7c1 84be 3517 03bf
000001d0: af39 97be 9b9a 073e 26f8 653e bda2 5c3b
000001e0: 040e 81be 8ad1 7dbe d7ec a1bd 9504 81bb
000001f0: 3459 dbbd e836 bf3e 0e96 acbe bcf4 9c3e
00000200: 2d0a b73d 6201 dd3e fdf3 1bbe bb63 043e
00000210: 4caf bcbd f985 e93e 3790 3e3d 79e0 5c3e
00000220: a604 803d c3ca 933d 976d 1abe 03b5 7cbe
00000230: 0f88 a5bc 20fb c13c 13cd ecbc 341e 253d
00000240: 2ae5 fb3e bbff c63d 3dd3 bd3e c2c9 223f
00000250: 1e1e f43d c639 af3c 440f 20be deae 1c3e
00000260: e102 293e 3829 263e 32db 09be c2e2 e63c
00000270: 50c9 cf3e 8454 923e 524e b43c 5514 973e
00000280: a690 b2be 61f3 35be a291 423e a364 6d3d
00000290: 802c 023f 8db3 1a3f 9d85 ef3c aef4 923e
000002a0: c7a2 2bbb d842 13bd bd13 b63d 87e2 3b3e
000002b0: 13bd 47bd 34f4 17bb 1d76 6cbe 9673 1ebf
000002c0: cca7 9b3e 2d04 e83e b4ee 483e d468 d73d
000002d0: ac36 a23e fcf2 ad3e 55b6 663d 245b 423e
000002e0: 0955 053f bacb 30be 454d 113f 2013 04be
000002f0: 0e2a f83e ec45 7ebe 31a1 bb3d 4c64 e83d
00000300: 3dec c3bd 7a27 6fbd 2be7 56bb f98b dc3e
00000310: 2547 963e d00c 6d3e 5d04 2d3e c09d d83d
00000320: 14b7 bfbe b6e9 0bbe 3332 a53d da94 153e
00000330: 1947 34bd ac0a 96be 14e2 99be 0cd0 893e
00000340: a56c 5b3e 77fc 34bd 9095 19be 953f 00be
00000350: 2634 0e3e b4cb c63e 5177 553f b59b 19be
00000360: befd dcbd 5855 55be f700 003e 317d 313e
00000370: 6a91 8cbe 75f5 133f 02d1 173e 61aa ed3e
00000380: de99 ecbd 47c7 9a3c 66e0 18be 1306 963d
00000390: 8c15 0fbd 2eb7 5f3e 6a4a 963e ba5a bb3d
000003a0: 7c12 833e 8a98 a73e b4bf 443e 0e10 543d
000003b0: f3fa 7ebe 02e1 4f3d cdf2 303e e892 433e
000003c0: 3540 c0be 36d9 a63e 4a6f 4f3f 2bc1 013e
000003d0: 6685 ee3e b085 26be 8673 e73d 48e6 833e
000003e0: ebf3 653f ad76 1cbe ea2e 02bf c844 14be
000003f0: 777a d83c a37b 7e3d 8516 e03e ddc3 87bc

layer2.0.bias f4 [64]
4.5147528e-05 3.0562867e-05 0.00014058544 0.00013808369 8.994646e-05 0.00032994436 0.00013260571 -1.5654468e-05
-1.70385e-05 0.00017119605 -0.00013708323 5.92002e-06 -0.00015163556 -0.0003331227 -5.943637e-06 -0.00016971974
0.0005941556 0.0002906654 -2.8461978e-05 1.2754813e-05 0.00035569392 4.4661123e-05 -0.00065614894 -0.00070071337
6.1650295e-05 0.00011906927 1.1962402e-05 -3.432257e-05 -0.00010393355 -1.4376683e-05 -0.00013665052 -4.343263e-06
4.4574455e-05 -5.6497214e-07 -0.00066626864 0.00010127589 -0.00058247586 -0.00014518318 -3.4302084e-05 6.7129313e-06
4.5031597e-05 0.0001065971 1.1635995e-05 -5.6292556e-05 -0.0002856365 -2.5375877e-05 0.00062362716 -4.0039202e-05
0.00015668356 0.0003842148 -5.4600612e-05 6.6621515e-06 -1.3511786e-05 2.3814056e-05 6.784603e-05 -0.00051803654
-0.00027889188 -3.3972735e-06 3.7352e-05 -0.00015242235 -1.1125691e-05 -6.943303e-05 1.286206e-05 -4.9523653e-05
00000000: ca5c 3d38 a130 0038 1e6a 1339 8fca 1039
00000010: a3a1 bc38 62fc ac39 130c 0b39 b751 83b7
00000020: e6ed 8eb7 1783 3339 00be 0fb9 96a4 c636
00000030: 5c00 1fb9 f9a6 aeb9 746f c7b6 ccf6 31b9
00000040: 1bc1 1b3a 7364 9839 a2c1 eeb7 81fd 5537
00000050: 6e7c ba39 8452 3b38 6901 2cba 14b0 37ba
00000060: 404a 8138 d4b4 f938 20b2 4837 94f5 0fb8
00000070: e6f6 d9b8 6233 71b7 d849 0fb9 58bc 91b6
00000080: 75f5 3a38 97a8 17b5 88a8 2eba 1464 d438
00000090: 4bb1 18ba 503c 18b9 95df 0fb8 a43f e136
000000a0: 4fe0 3c38 e28c df38 3838 4337 ac1b 6cb8
000000b0: 7bc1 95b9 48de d4b7 e97a 233a c4ef 27b8
000000c0: 6c4b 2439 7070 c939 f602 65b8 728b df36
000000d0: aeb0 62b7 4cc4 c737 8f48 8e38 d8cc 07ba
000000e0: 3c38 92b9 b7fc 63b6 68aa 1c38 90d3 1fb9
000000f0: 7ba8 3ab7 939c 91b8 21ca 5737 9eb7 4fb8

layer2.1.weight f4 [64]
0.61129814 0.6737858 1.5504698 1.3528093 0.73078537 1.066483 1.1289055 0.49367315
0.36528298 0.7418452 1.2189562 0.22675873 0.57865554 0.8254233 0.6366423 0.94147265
1.1350546 1.76509 0.87012607 0.5156315 1.2844257 0.6843021 1.2753716 1.5436215
0.56445557 1.2038153 1.6125243 1.7416297 0.5641891 0.63349247 1.4350688 0.7200484
0.70640194 0.47732058 1.1820073 0.7904741 1.4300368 0.790096 0.81837726 0.6541704
0.67078024 0.90281343 0.5878306 0.64959115 0.95426327 0.68967247 1.948146 1.2326546
0.76491606 1.4085275 0.73352253 0.6190743 0.67451185 0.66170645 0.54908943 1.1556964
0.9833206 0.48565283 0.6114935 0.976868 0.7320397 0.5003336 0.75014937 1.0675508
00000000: 097e 1c3f 3a7d 2c3f cb75 c63f db28 ad3f
00000010: c014 3b3f 8482 883f fa7f 903f bac2 fc3e
00000020: 5f06 bb3e 91e9 3d3f c206 9c3f 7133 683e
00000030: c522 143f f14e 533f fdfa 223f 5a04 713f
00000040: 7849 913f 78ee e13f 95c0 5e3f 6d00 043f
00000050: 1068 a43f 6c2e 2f3f 603f a33f 6495 c53f
00000060: 2980 103f 9f16 9a3f 3267 ce3f b9ed de3f
00000070: b26e 103f 902c 223f 56b0 b73f 1855 383f
00000080: c2d6 343f 5d63 f43e 044c 973f 835c 4a3f
00000090: 720b b73f bb43 4a3f 2c81 513f b677 273f
000000a0: 41b8 2b3f c81e 673f 117c 163f 9b4b 263f
000000b0: 994a 743f 608e 303f d95c f93f a0c7 9d3f
000000c0: 8ad1 433f a14a b43f 22c8 3b3f a77b 1e3f
000000d0: cfac 2c3f 9865 293f 2091 0c3f dced 933f
000000e0: e6ba 7b3f 7da7 f83e d78a 1c3f 0514 7a3f
000000f0: f466 3b3f dd15 003f ca09 403f 81a5 883f

layer2.1.bias f4 [64]
-0.38701242 -0.9405153 -0.65587753 -0.70525354 -0.4375914 -0.11966319 0.33975494 -1.1793478
-0.853323 -0.3845267 -0.58320534 -0.77822787 -0.46932516 0.013699525 -1.1232802 0.09083484
-0.40354362 -0.18940657 -0.8385121 -1.2065659 -0.44915143 -0.4854953 0.51386434 -0.07824678
-1.4510751 -0.6977992 0.21784681 -0.45198262 -0.64381784 -1.5974053 -0.53548896 -1.086223
-0.66249514 -1.4046463 -0.5429022 -0.100160435 -0.4439978 -0.30553648 -1.2878543 -1.514774
-0.37773982 -1.3272991 -1.2425519 -0.95458037 -0.20137447 -0.2672347 0.23833056 -0.35262987
-0.4361308 -0.23216186 -1.4432621 -1.7350821 -1.3685634 -1.1189419 -1.1840003 -0.45019534
0.085742846 -1.0776578 -1.5338386 -0.42080376 -1.5681913 0.06986529 -1.4090031 -1.4195639
00000000: 7e26 c6be 9cc5 70bf 97e7 27bf 7f8b 34bf
00000010: fb0b e0be f911 f5bd 5cf4 ad3e def4 96bf
00000020: 6073 5abf afe0 c4be f24c 15bf f139 47bf
00000030: 634b f0be f973 603c a5c7 8fbf 9e07 ba3d
00000040: 459d cebe ccf3 41be bba8 56bf c070 9abf
00000050: 2df7 e5be d792 f8be 9d8c 033f d93f a0bd
00000060: d4bc b9bf f8a2 32bf 3c13 5f3e 446a e7be
00000070: 3fd1 24bf c777 ccbf ce15 09bf 5b09 8bbf
00000080: 4899 29bf 73cb b3bf a3fb 0abf ea20 cdbd
00000090: ae53 e3be 476f 9cbe 69d8 a4bf 1de4 c1bf
000000a0: 1d67 c1be f0e4 a9bf f10b 9fbf 615f 74bf
000000b0: 1c35 4ebe fdd2 88be ed0c 743e e78b b4be
000000c0: 894c dfbe d7bb 6dbe d0bc b8bf 2c17 debf
000000d0: 162d afbf 7d39 8fbf 528d 97bf 0180 e6be
000000e0: f299 af3d b1f0 89bf d354 c4bf 9773 d7be
000000f0: 7eba c8bf 8815 8f3d 375a b4bf 45b4 b5bf

layer2.1.running_mean f4 [64]
10.8138275 -4.2182894 -19.908438 -10.295013 5.5487127 -1.1317651 8.634504 14.04152
7.226664 8.034274 -21.297834 0.050285432 1.4843616 2.7881246 -6.872676 10.012307
-11.07647 -10.421244 7.204341 14.361666 -23.069592 15.123992 8.118567 -27.501713
9.841995 -0.8583675 -19.632036 -24.439772 9.533996 18.576756 -25.00579 13.609481
3.0590973 14.248575 -4.0591235 12.643323 12.009474 -8.527505 18.670227 19.963778
10.76774 20.604502 13.509426 13.818217 1.9541181 -5.341913 -19.59212 -9.591515
-8.699246 -11.437528 19.894554 12.819801 7.4261456 18.472486 5.149539 5.1322827
7.3078814 17.23267 12.643736 8.199167 16.492306 20.388042 16.401344 24.354187
00000000: 7005 2d41 3afc 86c0 7b44 9fc1 60b8 24c1
00000010: 0e8f b140 aedd 90bf ee26 0a41 11aa 6041
00000020: d540 e740 638c 0041 f761 aac1 19f8 4d3d
00000030: 90ff bd3f a270 3240 f6ec dbc0 6932 2041
00000040: 3939 31c1 6abd 26c1 f689 e640 62c9 6541
00000050: 868e b8c1 dffb 7141 a7e5 0141 8203 dcc1
00000060: d078 1d41 f9bd 5bbf 690e 9dc1 a784 c3c1
00000070: 3f8b 1841 329d 9441 dc0b c8c1 6fc0 5941
00000080: 40c8 4340 2afa 6341 57e4 81c0 0d4b 4a41
00000090: ce26 4041 a970 08c1 a05c 9541 d1b5 9f41
000000a0: aa48 2c41 05d6 a441 9c26 5841 6b17 5d41
000000b0: 8b20 fa3f f4f0 aac0 a9bc 9cc1 d876 19c1
000000c0: 1d30 0bc1 1d00 37c1 0c28 9f41 e81d 4d41
000000d0: fca2 ed40 a7c7 9341 06c9 a440 a93b a440
000000e0: 2ada e940 82dc 8941 be4c 4a41 ca2f 0341
000000f0: 3ef0 8341 b61a a341 f435 8341 60d5 c241

layer2.1.running_var f4 [64]
190.78311 117.96041 350.43875 204.50867 156.59482 174.99852 261.86383 189.32935
92.61288 156.2573 313.305 67.07034 106.783485 207.59521 201.23726 209.03804
222.14369 304.09634 148.11375 155.48244 468.4799 215.97467 264.15445 688.0008
189.14888 225.8547 520.9223 473.45175 170.94498 283.24588 434.83646 175.96933
138.44342 144.72118 200.10634 261.71716 218.27347 140.4493 367.59265 318.17514
151.2068 383.18817 197.21124 227.18309 153.81168 136.6339 642.7405 228.10808
193.02782 247.41193 369.6485 193.4141 120.32975 251.49113 122.75945 225.76497
151.6338 256.47577 207.9098 141.27809 266.15787 304.78635 242.01387 491.43915
00000000: 7ac8 3e43 bbeb eb42 2938 af43 3882 4c43
00000010: 4698 1c43 9fff 2e43 92ee 8243 5054 3d43
00000020: cb39 b942 de41 1c43 0aa7 9c43 0424 8642
00000030: 2591 d542 6098 4f43 bd3c 4943 bd09 5143
00000040: c924 5e43 550c 9843 1f1d 1443 817b 1b43
00000050: 6d3d ea43 84f9 5743 c513 8443 0d00 2c44
00000060: 1d26 3d43 ceda 6143 073b 0244 d3b9 ec43
00000070: eaf1 2a43 799f 8d43 116b d943 26f8 2f43
00000080: 8471 0a43 9fb8 1043 391b 4843 ccdb 8243
00000090: 0246 5a43 0573 0c43 dccb b743 6b16 9f43
000000a0: f134 1743 1698 bf43 1436 4543 df2e 6343
000000b0: cacf 1943 47a2 0843 64af 2044 ab1b 6443
000000c0: 1f07 4143 7469 7743 02d3 b843 026a 4143
000000d0: d5a8 f042 bb7d 7b43 d784 f542 d5c3 6143
000000e0: 41a2 1743 e63c 8043 e9e8 4f43 3147 0d43
000000f0: 3514 8543 a764 9843 8d03 7243 36b8 f543

layer3.0.weight f4 [128, 64, 5]
1.8308329e-07 -1.169985e-06 -3.635226e-05 -9.736633e-07 2.6105363e-07 -9.3514444e-07 1.1926005e-05 7.981782e-06
1.0848015e-05 -1.2384166e-06 2.4793948e-05 -0.0059783785 0.00019716583 -0.0005477929 -0.0006949158 -8.025598e-07
1.2642102e-05 3.6183815e-06 -1.9624558e-07 9.579291e-06 -4.7675832e-07 -7.565282e-07 5.3729045e-06 -8.552917e-07
-4.2670387e-09 3.8705043e-06 9.270517e-06 -9.47766e-07 1.0387521e-07 -3.148913e-08 2.4387225e-06 1.4652073e-07
8.940048e-06 -1.0580862e-05 -5.1943246e-08 2.5285894e-08 1.0002906e-07 2.2324862e-07 6.821863e-07 -8.660643e-08
-7.4391494e-07 -6.36296e-07 -7.713866e-07 2.9431417e-06 -3.5683072e-08 6.4146743e-06 5.4407533e-06 8.303861e-06
-9.894901e-06 3.2962413e-07 -0.00017483547 -0.0024643734 -0.00064256287 -0.00050124404 -0.00024061481 -1.5915765e-07
3.010955e-06 1.4129294e-06 8.44369e-07 5.8907097e-09 -5.676602e-07 -5.706229e-07 1.0193224e-05 -9.2926734e-07
-0.000110719426 6.5998975e-09 7.1140613e-09 4.336874e-08 4.0293003e-08 -1.499967e-09 2.3599405e-07 9.445607e-06
-0.00016893554 1.1800606e-05 -8.047391e-07 -2.7686772e-07 2.4665124e-07 3.3388942e-06 5.638577e-08 -5.9092418e-08
1.5905954e-06 8.845823e-06 3.7191603e-09 -1.0514718e-06 8.571748e-06 -1.1532348e-05 -0.0012181998 -0.0023914543
-0.0045085987 0.00015585458 6.852224e-08 -9.450831e-07 -3.1048046e-07 8.11701e-06 1.4799139e-07 3.6457348e-06
-7.020256e-07 2.052075e-07 5.1037855e-06 8.845093e-08 -6.5183456e-05 -0.0016953158 8.531995e-05 0.000102771875
-0.000102266946 1.0017467e-05 -2.2647191e-05 -5.918817e-05 -5.4347478e-05 7.5004173e-06 2.0143186e-07 -9.995774e-07
1.087159e-05 1.05338395e-05 3.223295e-06 -0.0035465457 0.0010846532 -0.0037526903 -0.0024726165 -0.0005465924
4.829997e-08 2.1810317e-06 -6.628783e-07 -1.1274653e-07 -2.8274413e-05 -1.949493e-06 -0.0005459954 -2.0670804e-07
7.975032e-06 -7.55383e-07 -6.941469e-06 1.404622e-08 -2.7965217e-07 -6.9397305e-07 1.2181023e-05 -0.017299365
-0.008487619 -0.005885326 -0.0019166535 -0.0011940579 1.6777142e-07 -9.370705e-07 5.4770817e-06 -9.4353163e-07
-7.984885e-07 -1.3848742e-07 -3.6338548e-08 2.6216185e-07 -1.0443355e-06 1.2053035e-06 -0.00020692864 -0.0027572883
-0.003889454 -0.0011543914 -0.0008122452 -3.0332387e-07 9.760544e-08 9.684417e-07 -1.1582899e-06 7.947677e-06
1.0564037e-07 -5.5196887e-07 -5.188169e-07 6.0539624e-06 -1.0584494e-07 -1.2587698e-08 -1.5781927e-08 -7.0111343e-09
3.7228986e-08 1.1334636e-08 -9.226505e-06 -9.3599825e-05 7.8555263e-07 -2.4574064e-08 -2.104512e-06 2.4809692e-06
9.844188e-06 -8.942656e-05 1.4564142e-05 1.224704e-05 -7.499978e-08 -1.137316e-06 2.9506214e-06 1.0404653e-05
6.2329586e-06 -1.0647228e-06 -5.990384e-07 1.3586981e-07 1.4680545e-07 -1.837042e-07 -6.136765e-08 -1.6146105e-07
-7.699272e-08 -3.5329943e-08 -4.6087234e-08 2.3136218e-08 -5.4480502e-08 -2.639475e-07 4.1683364e-08 1.24011805e-08
-1.0697876e-06 -2.7511749e-06 9.823631e-06 -2.162994e-05 -1.2233593e-06 -9.837928e-08 -7.7939217e-07 2.8070358e-06
5.2363316e-07 2.813725e-06 -4.4359982e-07 1.5093251e-06 -7.964577e-07 -7.258016e-07 -4.1805035e-07 -6.2767106e-07
9.5528456e-08 -8.008169e-07 5.1358516e-06 -4.271573e-06 -0.00017603795 -2.6386193e-05 7.523272e-06 4.809261e-06
1.3724092e-07 2.3986497e-06 -8.218373e-05 8.0374875e-06 -1.2580049e-06 1.3542376e-07 0.0023562105 0.0022726194
-8.4450505e-07 7.357933e-07 -1.1779218e-08 -0.00013677232 -1.0655092e-09 1.0608798e-05 -3.470062e-07 7.1191284e-06
3.8793488e-08 -6.131564e-07 -8.820284e-07 -1.7498822e-07 -2.1318944e-07 1.7339621e-06 6.2865342e-06 -0.00080357457
-1.1285159e-06 -1.3199668e-06 -2.5053504e-09 1.1032305e-07 1.3320184e-07 2.8900797e-09 -1.0046136e-07 8.734923e-09
00000000: 8d95 4434 6108 9db5 f178 18b8 d1ae 82b5
00000010: f026 8c34 a306 7bb5 cd15 4837 7ee9 0537
00000020: dfff 3537 ac37 a6b5 99fc cf37 46e6 c3bb
00000030: 4dbe 4e39 c299 0fba 032b 36ba 7d6f 57b5
00000040: 6a19 5437 52d3 7236 93b7 52b4 beb6 2037
00000050: 2af5 ffb4 3914 4bb5 e648 b436 3397 65b5
00000060: 459d 92b1 61df 8136 9188 1b37 fc69 7eb5
00000070: 0012 df33 aa3e 07b3 efa8 2336 5053 1d34
00000080: 37fd 1537 7584 31b7 3418 5fb3 4534 d932
00000090: 8fcf d633 1db6 6f34 7c1f 3735 63fc b9b3
000000a0: 72b1 47b5 eecd 2ab5 4911 4fb5 ca82 4536
000000b0: f441 19b3 a23d d736 b78f b636 d050 0b37
000000c0: 4702 26b7 32f7 b034 0a54 37b9 5381 21bb
000000d0: aa71 28ba eb65 03ba 8c4d 7cb9 ece4 2ab4
000000e0: d00f 4a36 e2a3 bd35 99a8 6235 3b67 ca31
000000f0: 5061 18b5 e82c 19b5 9003 2b37 c472 79b5
00000100: 0a32 e8b8 50c5 e231 f26f f431 6f44 3a33
00000110: a00e 2d33 6627 ceb0 8d65 7d34 9378 1e37
00000120: 4a24 31b9 38fb 4537 4005 58b5 69a4 94b4
00000130: 7d6b 8434 c411 6036 cf2c 7233 cdcc 7db3
00000140: 717c d535 8568 1437 2994 7f31 4c20 8db5
00000150: 61cf 0f37 0f7b 41b7 01ac 9fba f2b9 1cbb
00000160: debc 93bb e56c 2339 8026 9333 9eb1 7db5
00000170: 1cb0 a6b4 4b2e 0837 90e7 1e34 3fa9 7436
00000180: d572 3cb5 0257 5c34 2f41 ab36 6af2 bd33
00000190: 1ab3 88b8 5c35 deba cded b238 3b87 d738
000001a0: 2678 d6b8 b110 2837 79fa bdb7 d040 78b8
000001b0: 29f3 63b8 18ac fb36 2b49 5834 3829 86b5
000001c0: 2065 3637 7fba 3037 c94f 5836 2a6d 68bb
000001d0: ec2a 8e3a b2ef 75bb 9f0b 22bb 3249 0fba
000001e0: 6172 4f33 d75d 1236 a6f0 31b5 0f1f f2b3
000001f0: d72e edb7 09d4 02b6 2221 0fba 79f3 5db4
00000200: 80cc 0537 86c5 4ab5 c4ea e8b6 ee4f 7132
00000210: 1a23 96b4 7749 3ab5 185d 4c37 66b7 8dbc
00000220: a80f 0bbc b1d9 c0bb 3838 fbba ef81 9cba
00000230: a824 3434 ff8a 7bb5 c6c7 b736 0047 7db5
00000240: b657 56b5 22b3 14b4 a812 1cb3 40bf 8c34
00000250: 182b 8cb5 eac5 a135 fcfa 58b9 9fb3 34bb
00000260: 36e6 7ebb f34e 97ba daec 54ba 84d8 a2b4
00000270: 289b d133 67fb 8135 8a76 9bb5 0357 0537
00000280: 68dc e233 032b 14b5 d344 0bb5 2423 cb36
00000290: df4c e3b3 4841 58b2 d390 87b2 97e6 f0b1
000002a0: b4e5 1f33 42ba 4232 8acb 1ab7 064b c4b8
000002b0: c4de 5235 f016 d3b2 3e3b 0db6 ba7e 2636
000002c0: 7728 2537 858a bbb8 8358 7437 a378 4d37
000002d0: 910f a1b3 e1a5 98b5 4a03 4636 a58f 2e37
000002e0: b524 d136 99e7 8eb5 9bcd 20b5 9ce3 1134
000002f0: 93a1 1d34 3a40 45b4 39c9 83b3 135e 2db4
00000300: 3257 a5b3 afbd 17b3 73f1 45b3 15bd c632
00000310: f2fd 69b3 abb4 8db4 5807 3333 f80c 5532
00000320: 9f95 8fb5 d3a0 38b6 2dd0 2437 f171 b5b7
00000330: 4e32 a4b5 9544 d3b3 6c37 51b5 8260 3c36
00000340: cc8f 0c35 6dd3 3c36 e527 eeb4 0494 ca35
00000350: 28cc 55b5 b5d4 42b5 6770 e0b4 3a7d 28b5
00000360: 5325 cd33 b8f7 56b5 a154 ac36 8854 8fb6
00000370: d496 38b9 eb57 ddb7 6a70 fc36 3d5f a136
00000380: 7f5c 1334 7df8 2036 0e5a acb8 bfd8 0637
00000390: b8d8 a8b5 0069 1134 a76a 1a3b 3af0 143b
000003a0: f2b1 62b5 5583 4535 8c5d 4ab2 8a6a 0fb9
000003b0: 4671 92b0 71fc 3137 2b4c bab4 d9e0 ee36
000003c0: e49d 2633 c997 24b5 88c4 6cb5 65e4 3bb4
000003d0: 11e9 64b4 7cba e835 ebf0 d236 faa6 52ba
000003e0: 8377 97b5 b729 b1b5 972a 2cb1 bdea ec33
000003f0: 3e06 0f34 d29a 4631 37bd d7b3 9910 1632

layer3.0.bias f4 [128]
-1.3906541e-13 -2.4445235e-10 2.9063658e-09 8.853138e-08 -2.8856437e-08 -7.016355e-08 0.00011621159 -4.9078495e-15
-4.9170032e-09 -2.0419507e-06 0.0009876665 2.4977187e-09 0.00015601463 -3.2157674e-05 -5.9657947e-07 0.00026264455
-8.895598e-14 3.2400298e-08 -1.6715046e-11 -1.1312326e-14 -1.916107e-12 -5.501022e-10 -3.0682055e-05 -1.2135463e-07
-0.00024825922 3.3794202e-14 -2.9385243e-13 -1.04272634e-16 9.4060326e-08 -1.10057075e-16 1.9478204e-15 4.906269e-12
5.0144684e-16 -3.5425503e-11 7.6686355e-09 -6.808491e-05 1.7012544e-10 0.00022730445 1.1258935e-08 4.1027124e-06
2.3538769e-07 9.212037e-11 -9.083807e-32 3.3735769e-06 -2.8320068e-05 2.0750981e-08 -2.5651417e-07 9.818531e-12
4.961051e-16 -1.0541314e-06 8.781595e-08 -8.803544e-12 5.275379e-08 0.00041822233 8.3476625e-06 -2.982878e-08
-3.1593768e-06 -5.544505e-06 2.3834093e-10 9.819298e-13 7.6729345e-10 4.4516263e-08 2.0076848e-06 2.2180102e-11
1.8788616e-05 9.727084e-13 3.1656093e-13 4.0922114e-06 2.9847527e-14 8.005701e-13 2.4426278e-08 1.4428433e-05
0.00034693474 -3.9878223e-06 -1.3013377e-11 1.4352119e-06 3.6814288e-07 -2.0582896e-11 5.3489833e-18 -2.53792e-07
1.19794495e-05 8.2922114e-10 2.4233284e-05 6.213316e-11 -4.4850018e-05 5.6539253e-14 2.3549458e-11 7.463036e-07
5.969995e-09 1.2947643e-15 -7.600245e-12 -0.0015432057 -3.509333e-07 4.8559723e-06 3.2356722e-05 -0.00045687563
-3.4055098e-05 -8.3879035e-13 5.1869587e-14 8.52976e-08 -1.3443207e-13 1.0176787e-05 9.672181e-10 3.452189e-13
8.405835e-09 -6.720467e-08 -2.631077e-10 7.287935e-22 -0.00060546707 -3.869336e-05 -1.6333726e-05 -1.2242031e-06
0.00017635683 0.00015234576 -2.2426906e-05 1.1634064e-07 8.8419765e-05 -1.6037123e-13 0.00026367643 -0.00015795759
-5.341122e-07 -0.00014132765 0.00047287898 -7.316995e-05 0.00050243497 8.222664e-06 2.477519e-10 -1.7391254e-05
00000000: e092 1caa 9c63 86af 54b9 4731 a41e be33
00000010: fadf f7b2 d2ac 96b3 9fb6 f338 ecd2 b0a7
00000020: 6bf2 a8b1 7208 09b6 9774 813a 55a4 2b31
00000030: dc97 2339 0ae1 06b8 a124 20b5 8eb3 8939
00000040: a24f c8a9 8128 0b33 f006 93ad e5c8 4ba8
00000050: 84d5 06ac 0036 17b0 9bb0 00b8 b54d 02b4
00000060: ca28 82b9 1032 1829 996c a5aa b36f f0a4
00000070: 36fe c933 3bc6 fda4 f25a 0c27 be9f ac2c
00000080: 3f88 1026 92cd 1bae 04bf 0332 cfc8 8eb8
00000090: 0e0e 3b2f 9358 6e39 526d 4132 08aa 8936
000000a0: e0be 7c34 2893 ca2e 41d4 eb8b 9c65 6236
000000b0: e290 edb7 e43f b232 0ab7 89b4 bcba 2c2d
000000c0: 18fe 0e26 ae7b 8db5 5495 bc33 a3df 1aad
000000d0: 6893 6233 da44 db39 f00c 0c37 171d 00b3
000000e0: ae05 54b6 ef0a bab6 8107 832f c031 8a2b
000000f0: 7ae9 5230 2632 3f33 c3bb 0636 2619 c32d
00000100: 3f9c 9d37 83e5 882b 3d35 b22a d44f 8936
00000110: db6b 0629 2857 612b f4d1 d132 a611 7237
00000120: cbe4 b539 22cf 85b6 0aef 64ad 81a1 c035
00000130: 2ca5 c534 900c b5ad b857 c522 e840 88b4
00000140: 58fb 4837 40ef 6330 9548 cb37 dca1 882e
00000150: 571d 3cb8 52a1 7e29 aa24 cf2d 9855 4835
00000160: a220 cd31 5f98 ba26 76b4 05ad 6445 caba
00000170: e867 bcb4 7cf0 a236 c4b6 0738 cf88 efb9
00000180: 62d6 0eb8 3719 6cab 9099 6929 da2c b733
00000190: 685b 17aa f8bc 2a37 f6ee 8430 4957 c22a
000001a0: 4169 1032 2852 90b3 1ea5 90af aa43 5c1c
000001b0: 35b8 1eba ae4a 22b8 6904 89b7 4c4f a4b5
000001c0: 6dec 3839 01bf 1f39 6a21 bcb7 f1d6 f933
000001d0: 006e b938 dc8f 34aa 0d3e 8a39 6ba1 25b9
000001e0: e95f 0fb5 5a31 14b9 beec f739 d172 99b8
000001f0: d7b5 033a 13f4 0937 fb33 882f 6fe3 91b7

layer3.1.weight f4 [128]
0.12482212 -0.010505535 0.012747843 0.43827528 0.06470486 0.20070668 0.777751 -0.018979236
0.084868364 0.06605906 0.74488807 0.24544345 0.5957261 0.27897626 0.17443967 0.55678016
0.06841922 0.31191328 0.048956845 0.121672094 0.11183809 0.226366 0.5398427 0.02765211
0.674008 0.35535964 0.109299734 0.0920488 -0.00963886 0.36743686 -0.026052644 0.22903343
0.08467943 0.013530612 -0.025126344 0.36426422 0.15965374 0.65736544 0.1341321 0.41871378
0.30829874 0.2078539 0.17790937 0.03719511 0.56426543 -0.094888985 0.3536872 0.1409302
0.1719805 0.43510035 0.32661784 0.066592194 0.2777473 0.48716697 0.28402573 0.25676167
0.1451309 -0.072606735 0.26967552 0.17762634 0.19140215 -0.0576081 0.33057097 0.09303936
0.25527182 0.18869828 0.08315541 0.10178192 0.03201904 0.12059488 0.1509206 0.054217827
0.716502 0.24830776 0.3211019 0.13871774 0.081341654 0.05360376 0.22146374 0.20282605
0.28756303 0.040864088 0.19462313 0.22351225 0.69794333 0.15736142 0.18460292 0.2864368
-0.0106906565 0.023811506 0.3264475 0.6377692 0.041951083 0.14448294 0.89149463 0.85704535
0.5777235 0.11271135 -0.03937232 0.0737619 0.13199702 0.23663954 0.11580444 0.15871143
0.20820811 -0.1336762 0.026781032 0.098718256 0.59416527 0.23919876 0.40209812 0.17576371
0.77014524 0.6247684 0.18882355 0.3262795 0.46950668 -0.022000667 0.7748646 0.3430002
0.17146268 0.7227106 0.77548945 0.54826844 0.7558329 0.36327252 0.21212998 0.26234752
00000000: bda2 ff3d 681f 2cbc 54dc 503c 9e65 e03e
00000010: fb83 843d 0d86 4d3e b11a 473f 587a 9bbc
00000020: 77cf ad3d f949 873d fcb0 3e3f 8755 7b3e
00000030: 8181 183f fad5 8e3e 50a0 323e 2589 0e3f
00000040: 601f 8c3d 19b3 9f3e f986 483d 382f f93d
00000050: 5e0b e53d 7dcc 673e 2233 0a3f ae86 e23c
00000060: ca8b 2c3f b3f1 b53e 8ad8 df3d 1584 bc3d
00000070: 4fec 1dbc af20 bc3e 5b6c d5bc bd87 6a3e
00000080: 696c ad3d 80af 5d3c c3d5 cdbc d780 ba3e
00000090: 457c 233e 1a49 283f ed59 093e a761 d63e
000000a0: 55d9 9d3e a7d7 543e e02d 363e e659 183d
000000b0: b373 103f 2855 c2bd 7d16 b53e 0250 103e
000000c0: a81b 303e 79c5 de3e 743a a73e 7d61 883d
000000d0: e534 8e3e f36d f93e d26b 913e 4476 833e
000000e0: 329d 143e d7b2 94bd e912 8a3e aee3 353e
000000f0: edfe 433e 79f6 6bbd 9940 a93e 6c8b be3d
00000100: fdb2 823e 1f3a 413e 624d aa3d 0a73 d03d
00000110: 6626 033d 73fa f63d ee8a 1a3e 8313 5e3d
00000120: ad6c 373f 6444 7e3e 7867 a43e 060c 0e3e
00000130: 7496 a63d 9e8f 5b3d 64c7 623e a2b1 4f3e
00000140: 763b 933e 1a61 273d 494b 473e 65e0 643e
00000150: 6aac 323f 5a23 213e 8c08 3d3e d8a7 923e
00000160: dd27 2fbc 5910 c33c 2024 a73e d844 233f
00000170: e6d4 2b3d 56f3 133e fe38 643f 5367 5b3f
00000180: b0e5 133f 35d5 e63d df44 21bd 7b10 973d
00000190: 3a2a 073e a351 723e e12a ed3d 4085 223e
000001a0: 8234 553e 6ae2 08be e563 db3c cc2c ca3d
000001b0: 371b 183f 85f0 743e cedf cd3e 67fb 333e
000001c0: 3d28 453f d2f0 1f3f f65a 413e 1b0e a73e
000001d0: 2e63 f03e be3a b4bc 875d 463f b99d af3e
000001e0: ea93 2f3e 9003 393f 7a86 463f 525b 0c3f
000001f0: 447e 413f dbfe b93e 9a38 593e 6a52 863e

layer3.1.bias f4 [128]
-0.4033901 -0.7766804 -0.8547372 -0.6291351 -0.4804511 -0.6080112 -0.26723567 -0.5265311
-0.4119774 -0.6611874 -0.042536147 -0.76119196 -0.49511257 -0.80275655 -0.5261192 -0.59510696
-0.38232657 -0.5361899 -0.4058151 -0.30743343 -0.3665758 -0.5564587 -0.63845056 -0.41209728
-0.26711056 -0.5371525 -0.44190714 -0.36437598 -0.72297233 -0.53129125 -0.83105946 -0.40597844
-0.36795896 -0.65382844 -0.78385633 -0.98707 -0.6190305 -0.27458513 -0.42817616 -0.70198625
-0.42934692 -0.47973096 -0.30121133 -0.80497235 -0.3418477 -0.7246756 -0.4830926 -0.4633087
-0.40373233 -0.60693324 -0.4560466 -0.91391236 -0.43873903 -0.1693392 -0.7566486 -0.48485294
-0.58344454 -0.8753461 -0.44791332 -0.39533138 -0.4696185 -0.7039483 -0.52324885 -0.41080192
-0.7180416 -0.4361443 -0.47640958 -0.7480026 -0.6247177 -0.47587377 -0.55380505 -0.41726077
-0.53240114 -0.5947847 -0.5209877 -0.518921 -0.69897395 -0.68450093 -0.25972933 -0.36232108
-0.6326299 -0.84477055 -0.61365205 -0.53022623 -0.5525184 -0.39653954 -0.41867158 -0.39937896
-0.8931248 -0.58291715 -0.63447213 -0.14684519 -0.86787695 -0.59684134 -0.64483315 -0.4744706
-0.52692336 -0.4028707 -0.74982744 -0.51373166 -0.4176043 -0.3347393 -0.42825451 -0.37936652
-0.39737046 -0.81579196 -0.7421443 -0.32979015 -0.11430075 -0.3066559 -0.46584365 -0.4228858
-0.44193465 -0.6881441 -0.6884235 -0.51156414 -0.21538022 -0.79862785 -0.40594214 -0.27042934
-0.36643085 -0.35055947 -0.22115101 -0.52407026 -0.231852 -0.35065135 -0.5964024 -0.69000804
00000000: 2689 cebe 87d4 46bf 0fd0 5abf ff0e 21bf
00000010: b0fd f5be 9fa6 1bbf 1dd3 88be beca 06bf
00000020: b4ee d2be 9443 29bf 623a 2ebd 7add 42bf
00000030: 657f fdbe 7481 4dbf bfaf 06bf ee58 18bf
00000040: 4fc0 c3be be43 09bf ffc6 cfbe ea67 9dbe
00000050: d3af bbbe 1474 0ebf 7f71 23bf 6afe d2be
00000060: b7c2 88be d482 09bf a741 e2be 7d8f babe
00000070: b714 39bf b402 08bf 50c0 54bf 68dc cfbe
00000080: 1e65 bcbe 4d61 27bf cfaa 48bf 9fb0 7cbf
00000090: c878 1ebf 6c96 8cbe e839 dbbe 5fb5 33bf
000000a0: 5cd3 dbbe 4c9f f5be 5f38 9abe ab12 4ebf
000000b0: a906 afbe 5784 39bf ea57 f7be cc36 edbe
000000c0: 01b6 cebe fa5f 1bbf f17e e9be 29f6 69bf
000000d0: 67a2 e0be 4167 2dbe b9b3 41bf a53e f8be
000000e0: 9f5c 15bf af16 60bf e554 e5be e068 cabe
000000f0: d671 f0be f535 34bf a3f3 05bf a154 d2be
00000100: 93d1 37bf 4e4e dfbe f5eb f3be 197d 3fbf
00000110: 80ed 1fbf baa5 f3be 2bc6 0dbf 34a3 d5be
00000120: 714b 08bf cf43 18bf 735f 05bf 02d8 04bf
00000130: f5ef 32bf 743b 2fbf 3efb 84be 2682 b9be
00000140: 08f4 21bf e242 58bf 4d18 1dbf e8bc 07bf
00000150: d971 0dbf 3b07 cbbe 1f5c d6be 667b ccbe
00000160: d4a3 64bf 0f3a 15bf c46c 22bf 965e 16be
00000170: 2f2d 5ebf 98ca 18bf c913 25bf cfed f2be
00000180: 73e4 06bf 1245 cebe b1f4 3fbf eb83 03bf
00000190: 3bd0 d5be f362 abbe 2d44 dbbe 543c c2be
000001a0: 2474 cbbe bed7 50bf 2bfd 3dbf 41da a8be
000001b0: 8316 eabd 0102 9dbe 0f83 eebe 7d84 d8be
000001c0: 4245 e2be 362a 30bf 863c 30bf def5 02bf
000001d0: a28c 5cbe e072 4cbf a6d7 cfbe b775 8abe
000001e0: d39c bbbe 887c b3be 6975 62be 7829 06bf
000001f0: 9c6a 6dbe 9388 b3be d4ad 18bf 5ea4 30bf

layer3.1.running_mean f4 [128]
-0.03823886 -1.9526826 0.80286217 -4.35259 -1.0354 -4.553455 -8.584658 -0.67452466
-0.7483226 -7.512513 -24.66798 -3.6095662 -11.777631 6.613515 -15.047775 5.6226234
-0.56308347 -2.3339362 -1.3203225 -0.1619292 -0.014059961 -1.6018244 19.612371 -3.38258
-8.29284 -0.5709439 -0.74545187 -4.3851683e-06 6.2413635 -0.6100047 0.46423236 -0.064970195
2.8484046e-06 0.5061608 2.4359515 10.603692 -5.269007 -4.372423 -1.8014203 10.907663
-1.2946198 -4.2445917 -0.018958135 2.8821611 -8.7850685 3.5630379 -2.009581 -0.7165224
-0.0143142985 -11.537026 -1.5587269 1.9520454 -1.0337317 -0.8486253 6.8856807 -1.5532688
-3.9345145 1.3189087 -0.076848194 -0.17041413 -0.069695234 6.1967373 -3.0197072 -1.591173
6.054123 -0.064039454 -2.5803487 -3.4004502 1.4275062 -1.0494531 -2.9223225 -6.702313
-16.0637 1.3162401 -0.6885234 -7.7522116 0.62916076 4.8456144 -0.0038052993 -0.22999537
1.0728931 4.15516 -0.16607232 -4.1257896 -10.508764 -0.000110787536 -0.100670755 0.9883985
1.1352868 0.3861202 -2.3892798 -14.344836 -1.1482345 1.3919725 -9.966958 -6.565454
-12.851231 1.3272664e-05 1.0476295 -6.1509814 -1.2224814 0.16435944 -4.671211 -0.105896086
-2.1867979 -5.8976336 2.1519234 -0.00021573063 17.683527 -1.7988932 -3.9223194 0.8916669
-10.979673 -9.341839 9.116609 -1.2310702 -9.18014 1.143635 -6.5068207 -1.0538857
-1.1057676 -18.095457 -7.61403 -9.324522 -21.434992 -0.31221807 -4.681098 -4.488682
00000000: 5aa0 1cbd 81f1 f9bf 6088 4d3f 6b48 8bc0
00000010: fd87 84bf e7b5 91c0 c25a 09c1 a6ad 2cbf
00000020: 1292 3fbf 8266 f0c0 0658 c5c1 2203 67c0
00000030: 2d71 3cc1 eaa1 d340 b0c3 70c1 88ec b340
00000040: 3d26 10bf 365f 15c0 5400 a9bf c5d0 25be
00000050: c05b 66bc 9508 cdbf 23e6 9c41 317c 58c0
00000060: 79af 04c1 6129 12bf efd5 3ebf 4f24 93b6
00000070: 40b9 c740 4529 1cbf ddaf ed3e 180f 85bd
00000080: 3827 3f36 c193 013f a1e6 1b40 b9a8 2941
00000090: b59b a8c0 e4ea 8bc0 f194 e6bf ca85 2e41
000000a0: 1ab6 a5bf b2d3 87c0 174e 9bbc 5475 3840
000000b0: a48f 0cc1 d008 6440 fa9c 00c0 036e 37bf
000000c0: 8586 6abc a997 38c1 5d84 c7bf a0dc f93f
000000d0: 5251 84bf 823f 59bf 7f57 dc40 83d1 c6bf
000000e0: 16cf 7bc0 00d2 a83f 9662 9dbd 0b81 2ebe
000000f0: 60bc 8ebd ac4b c640 e242 41c0 8fab cbbf
00000100: 60bb c140 1e27 83bd 6f24 25c0 faa0 59c0
00000110: 86b8 b63f 7b54 86bf 5507 3bc0 5979 d6c0
00000120: 7582 80c1 8e7a a83f 1243 30bf 1e12 f8c0
00000130: ae10 213f 460f 9b40 5462 79bb e883 6bbe
00000140: 9054 893f 12f7 8440 dd0e 2abe 7806 84c0
00000150: e623 28c1 9b56 e8b8 782c cebd af07 7d3f
00000160: 1451 913f 8cb1 c53e f6e9 18c0 7384 65c1
00000170: 59f9 92bf 282c b23f a978 1fc1 3318 d2c0
00000180: a49e 4dc1 a8ad 5e37 b918 863f d7d4 c4c0
00000190: 457a 9cbf d74d 283e 8f7a 95c0 0ce0 d8bd
000001a0: 7ff4 0bc0 6ab9 bcc0 1db9 0940 c035 62b9
000001b0: dd77 8d41 2242 e6bf 4807 7bc0 4844 643f
000001c0: beac 2fc1 2c78 15c1 a1dd 1141 b593 9dbf
000001d0: dae1 12c1 a262 923f e037 d0c0 bae5 86bf
000001e0: cb89 8dbf 7fc3 90c1 22a6 f3c0 3e31 15c1
000001f0: dd7a abc1 0cdb 9fbe 8ecb 95c0 48a3 8fc0

layer3.1.running_var f4 [128]
0.0014231754 86.45832 51.709324 43.999702 7.140991 96.48109 344.01367 1.0299968
3.1580937 220.95988 467.32285 140.95697 405.63623 227.08473 353.01392 559.4104
0.9324835 41.553307 5.968163 0.08408388 0.0031733494 99.62135 718.1617 64.862434
388.36682 0.3793521 1.8957136 2.2211129e-10 82.07445 1.2230939 3.6507206 0.00691965
8.67279e-11 2.9502556 89.35463 230.14278 73.795006 387.86118 10.332568 419.33704
2.8176706 79.670746 0.0015263685 376.396 285.0841 107.18715 77.01996 1.6244981
0.0009982124 618.941 24.255573 62.31651 3.46316 371.747 210.60555 6.4477654
382.50912 164.83643 0.016375573 0.06766361 0.01844583 189.39543 27.82231 8.669427
216.50699 0.021075943 28.939453 46.36463 6.7734613 4.3646 70.49937 156.83327
596.9837 369.97543 1.209446 186.00012 62.153275 54.982555 5.5062235e-05 0.019718168
219.28282 247.66171 93.76873 70.937416 301.83777 2.36746e-07 0.056229994 124.300316
21.632963 2.0899167 24.489283 949.48486 156.811 82.083176 645.10333 377.83493
289.82938 2.9675873e-09 8.148103 95.70423 4.352109 43.5465 80.386406 0.030448988
76.726036 55.969578 89.410034 1.6559952e-07 276.8325 27.810669 289.92773 86.2285
385.54074 235.02095 389.6126 3.101153 429.91464 2.724059 521.58295 259.6312
315.63974 490.1299 277.44708 270.44748 647.8945 2.9634118 50.331463 358.79477
00000000: d889 ba3a a9ea ac42 59d6 4e42 b2ff 2f42
00000010: 0083 e440 51f6 c042 c001 ac43 efd6 833f
00000020: 351e 4a40 bbf5 5c43 53a9 e943 fcf4 0c43
00000030: 70d1 ca43 b115 6343 c881 b043 44da 0b44
00000040: 3db7 6e3f 9636 2642 31fb be40 2b34 ac3d
00000050: f8f7 4f3b 223e c742 598a 3344 91b9 8142
00000060: f42e c243 703a c23e bea6 f23f c536 742f
00000070: 1e26 a442 578e 9c3f 68a5 6940 3bbe e23b
00000080: 78b7 be2e fdd0 3c40 92b5 b242 8d24 6643
00000090: 0b97 9342 3bee c143 3352 2541 24ab d143
000000a0: b754 3440 6c57 9f42 6e10 c83a b032 bc43
000000b0: c48a 8e43 d25f d642 380a 9a42 8eef cf3f
000000c0: 73d6 823a 39bc 1a44 6a0b c241 1b44 7942
000000d0: 6aa4 5d40 9edf b943 059b 5243 1854 ce40
000000e0: 2b41 bf43 20d6 2443 1126 863c 3893 8a3d
000000f0: b61b 973c 3b65 3d43 1794 de41 f9b5 0a41
00000100: ca81 5843 75a7 ac3c 0084 e741 6275 3942
00000110: 32c0 d840 ceaa 8b40 adff 8c42 51d5 1c43
00000120: f53e 1544 dbfc b843 20cf 9a3f 0800 3a43
00000130: f49c 7842 23ee 5b42 a0f2 6638 ff87 a13c
00000140: 6748 5b43 66a9 7743 9789 bb42 f5df 8d42
00000150: 3ceb 9643 3f34 7e34 6c51 663d c399 f842
00000160: 4f10 ad41 32c1 0540 0dea c341 085f 6d44
00000170: 9ecf 1c43 962a a442 9d46 2144 dfea bc43
00000180: 29ea 9043 59ee 4b31 a15e 0241 9168 bf42
00000190: 7a44 8b40 9e2f 2e42 d7c5 a042 2870 f93c
000001a0: bb73 9942 d9e0 5f42 f0d1 b242 a6cf 3134
000001b0: 8f6a 8a43 407c de41 c0f6 9043 fe74 ac42
000001c0: 37c5 c043 5d05 6b43 6ace c243 4a79 4640
000001d0: 13f5 d643 fc56 2e40 4f65 0244 cbd0 8143
000001e0: e3d1 9d43 a110 f543 3ab9 8a43 4739 8743
000001f0: 3ff9 2144 8aa8 3d40 6b53 4942 bb65 b343
